UADNet-main/weight/weights.pt (torch, 887618 bytes, 28 tensors)

Encoder.0.weight f4 [96, 198, 3, 3]
0	0xbc273df6	-0.010207644
1	0x3da85f01	0.082212456
2	0xbbbcec07	-0.0057654413
3	0xbcf5bcbb	-0.02999722
4	0x3ba5f822	0.00506498
5	0xbc574e5b	-0.01314124
6	0xbd47ede1	-0.048810843
7	0x3d90bf29	0.07067711
8	0xbb97c7a8	-0.004631955
9	0xbdb5a6c8	-0.088697016
10	0xbc580c51	-0.01318653
11	0x3ca82465	0.020525167
12	0xbd42bc6f	-0.047542986
13	0xbc015a4e	-0.0078950655
14	0xbd08632f	-0.033297714
15	0xbd55a0de	-0.052155368
16	0xbc9e131f	-0.019296227
17	0xbb542d26	-0.0032375543
18	0xbd51c39e	-0.051211946
19	0xbce36173	-0.027756428
20	0xbce20682	-0.027590994
21	0xbcbfb891	-0.023403438
22	0xbd36387d	-0.044487465
23	0xbc9822e8	-0.018571332
24	0x3b1c2d00	0.0023830533
25	0x3d1bfed2	0.038084812
26	0x3da672ae	0.08127342
27	0x3d4a7810	0.049430907
28	0x3c489cc4	0.012244407
29	0x3ba58284	0.005050959
30	0xbd543374	-0.051806882
31	0x3d23b892	0.03997094
32	0x3c729999	0.014807128
33	0xbadb4bf4	-0.001673101
34	0xbb2a0e84	-0.0025948593
35	0xbdba2302	-0.090887085
36	0x3c526661	0.012841792
37	0xbbfbb005	-0.0076808953
38	0x3cb24bbc	0.021764629
39	0x3d79caca	0.06098441
40	0x3acae99f	0.0015481001
41	0x3ce1134d	0.027475024
42	0x3a938a8c	0.00112565
43	0xbbbf2f20	-0.005834475
44	0x3d94e758	0.07270688
45	0xbbff0b4b	-0.0077833286
46	0x3cd42c46	0.025900017
47	0x3d1e160b	0.03859524
48	0xbd137bf2	-0.036006875
49	0xbb8de93f	-0.0043307836
50	0x3c2fbb58	0.010725819
51	0x3cdc1c2c	0.026868902
52	0xbd13b464	-0.036060706
53	0xbc258667	-0.010102845
54	0xbcf970ca	-0.03044929
55	0xbc65c0d1	-0.014023022
56	0xbbf94c1d	-0.0076079504
57	0xbcb779f7	-0.022397025
58	0xbcf55528	-0.029947832
59	0xba713254	-0.000920092
60	0x3c9914f8	0.018686756
61	0xbce6e97f	-0.028187511
62	0x3c401618	0.011724018
63	0xbd2d8768	-0.04236546
64	0xbd367bb2	-0.04455156
65	0xbd41f425	-0.047351975
66	0x3c01e294	0.007927556
67	0xbb62dd6a	-0.0034616836
68	0xbd808507	-0.06275373
69	0x3d64a396	0.05582007
70	0xbc4cb001	-0.0124931345
71	0xbd283fc9	-0.041076455
72	0xbd323563	-0.043507945
73	0xbd0b6387	-0.034030464
74	0x3d4787cf	0.0487135
75	0x3cf94fc6	0.030433547
76	0x3bdb1259	0.006685537
77	0xbc2f288d	-0.01069082
78	0xbc5899bb	-0.013220246
79	0x3d4e48e2	0.050362475
80	0xbc62dbb4	-0.013846327
81	0xbd2e8adf	-0.042612907
82	0x3c825bde	0.015912946
83	0xbc7ce786	-0.015436059
84	0xbd06b839	-0.032890532
85	0x3c6fa036	0.0146256
86	0x3d77e534	0.06052132
87	0x3d65b06e	0.05607646
88	0xbd6cc121	-0.05780137
89	0x3d21d280	0.03950739
90	0x3d245a3a	0.04012511
91	0xbcfe93ba	-0.0310763
92	0xbd587829	-0.05284897
93	0xbc6db8ad	-0.014509362
94	0xbd28edc4	-0.041242376
95	0xbccc1008	-0.024909988
96	0x3c532d8e	0.012889279
97	0xbc923ba8	-0.017850712
98	0x3c84a60c	0.016192459
99	0xbcee5b24	-0.029096194
100	0x3d70cfc3	0.058791887
101	0x3d717041	0.058944944
102	0x3cdbbdee	0.026823964
103	0xbd2e1e6a	-0.042509474
104	0xbb9eef1b	-0.004850281
105	0xbbec8c98	-0.0072189085
106	0x3bca0235	0.006164814
107	0x3c1477fa	0.009061808
108	0x3d2a8830	0.041633785
109	0x3d0267b4	0.03183718
110	0xbd1ac82f	-0.037788566
111	0x3d062250	0.032747567
112	0x3d1e4539	0.038640235
113	0x3d492530	0.04910773
114	0x3d35b88f	0.044365462
115	0xbd1ef43d	-0.038807143
116	0x3cbd5a18	0.02311425
117	0x3d7d2366	0.061801337
118	0xbc57abe9	-0.013163545
119	0x3bd978fe	0.006636738
120	0x3d1d9587	0.03847268
121	0x3ca67def	0.020323722
122	0xbca2f2d9	-0.01989119
123	0xbd26648c	-0.040623233
124	0xbc5c37e3	-0.013441059
125	0x3c827996	0.015927117
126	0x3ce2061d	0.027590806
127	0xbd01c448	-0.03168133
128	0xbccc945e	-0.02497309
129	0x3c8c6948	0.017140046
130	0x3cca7241	0.024712684
131	0x3cd7d189	0.026345031
132	0x3bead1fe	0.0071661463
133	0x3c0f7d24	0.008757863
134	0xbc9953f6	-0.018716794
135	0x3c16a86b	0.009195427
136	0xbce1ce69	-0.027564244
137	0x3ce93596	0.028467935
138	0x3d470aac	0.048594162
139	0xbc41e62c	-0.011834662
140	0xbd2d81d8	-0.042360157
141	0x3cfd0b03	0.03088904
142	0x3b780eea	0.0037850686
143	0xbd307b2a	-0.04308621
144	0xbbae9570	-0.005327873
145	0xbcdede0e	-0.027205493
146	0xbc2db00b	-0.010601054
147	0x3d1d905c	0.03846775
148	0x3c8e7634	0.017390348
149	0xbcab7b30	-0.020932764
150	0x3bee969d	0.007281138
151	0xbd89e91b	-0.067339145
152	0xbcebc2f7	-0.02877949
153	0xbd36718b	-0.044541877
154	0x3c12cd44	0.008960072
155	0x3cc246aa	0.023715336
156	0xbcc4f7c9	-0.024043934
157	0x3c9b7c8a	0.018980283
158	0x3d26f1e1	0.040758017
159	0xbd828079	-0.063721605
160	0xbcb287b3	-0.021793222
161	0x3b54b7c7	0.0032458173
162	0x3c33efd0	0.010982469
163	0xbc9fcfdd	-0.019508297
164	0xbb85c26d	-0.0040820152
165	0x3b939825	0.004504221
166	0x3c7ccf87	0.015430338
167	0xbc7ab553	-0.01530202
168	0xbb2dcb2a	-0.00265188
169	0xbcc0f3b8	-0.023553714
170	0x3a971af8	0.0011528423
171	0x3d7d64ce	0.061863713
172	0xbbec25a8	-0.0072066374
173	0x3d42f6fc	0.047598824
174	0xbca0cc92	-0.019628797
175	0x3bd8dfb5	0.006618465
176	0x3ae5b203	0.0017524365
177	0x3b192bbc	0.0023372015
178	0xbc20dcfb	-0.009818311
179	0xbc5998c2	-0.013281049
180	0x3d2a38c5	0.041558046
181	0x3bcafdcd	0.006194806
182	0x3c409645	0.011754577
183	0xbd719baa	-0.058986343
184	0x3c9e6645	0.019335875
185	0xbd5a6d3e	-0.053326838
186	0x3ad0f6d7	0.0015942705
187	0x3d1b9c33	0.03799076
188	0xbcfb88d6	-0.030704897
189	0xbc802d2f	-0.015646545
190	0xbc8305a7	-0.015993906
191	0x3b0a0a19	0.0021063148
192	0xbcefc6a6	-0.029269528
193	0xbcf82dc6	-0.030295264
194	0x3c804bff	0.015661238
195	0xbcca1474	-0.024667956
196	0xbce7139f	-0.028207598
197	0xbc9f6fdb	-0.019462517
198	0xbd15c044	-0.036560312
199	0xbd3c88fd	-0.04602908
200	0x3d511576	0.051045857
201	0xbb8ef5d7	-0.0043628025
202	0xbbe87669	-0.0070941937
203	0xbd2c9602	-0.042135246
204	0xb9788866	-0.00023701935
205	0xbcd8e8c3	-0.026478177
206	0x3cca81f4	0.02472017
207	0x3d80d52a	0.06290658
208	0xba64e80d	-0.0008732088
209	0x3c8f6912	0.017506156
210	0xbb34e4af	-0.0027602126
211	0xba1010e2	-0.000549568
212	0xbd7b606f	-0.061371263
213	0x399b4a20	0.0002961913
214	0x3d257d51	0.040402714
215	0x3d11a724	0.03555979
216	0x3d4dfd60	0.050290465
217	0xbb0e608c	-0.0021725027
218	0xbc97349b	-0.018457701
219	0xbd24c7dd	-0.040229667
220	0x3c7976c4	0.01522607
221	0xbd25a3ed	-0.040439535
222	0xbb923eb5	-0.0044630417
223	0x3cc51ccb	0.024061581
224	0x3b480a5a	0.0030523748
225	0x3c0cdaf1	0.008597122
226	0x3d0f127f	0.03492975
227	0xbbc8027c	-0.006103812
228	0xba31c66d	-0.0006781582
229	0xbc0d1902	-0.008611919
230	0xbbf0e77c	-0.007351814
231	0x3d522de8	0.05131331
232	0xbc93a3b5	-0.018022398
233	0xbc695048	-0.014240332
234	0xbc0bc04c	-0.008529734
235	0xbd267d82	-0.040647037
236	0xbc4c358c	-0.012463938
237	0xbd439c50	-0.047756493
238	0xbd56a72d	-0.052405525
239	0xbcf8db91	-0.030378135
240	0x3cfe7057	0.031059427
241	0xbd42e83d	-0.04758476
242	0x3d4f6741	0.05063558
243	0xbd55c8a0	-0.052193284
244	0xbce0e9ef	-0.027455298
245	0xbd059717	-0.032614794
246	0x3b6ccf94	0.0036134468
247	0xbce496fb	-0.027904024
248	0x3cfd6d9a	0.030936051
249	0x3c8b2449	0.016985076
250	0xbc2f9472	-0.010716544
251	0xbd0c3be6	-0.03423681
252	0xbc862881	-0.016376736
253	0x3b9d1d87	0.0047947797
254	0x3d68dc60	0.05685079
255	0x3d6af630	0.05736369

Encoder.0.bias f4 [96]
0	0xbcc45542	-0.023966435
1	0x3abfe9ea	0.0014641855
2	0x3aed6de3	0.0018114414
3	0x3c2b671a	0.010461593
4	0xbc893577	-0.016749127
5	0xbc82718b	-0.015923282
6	0xbcad1bdc	-0.021131448
7	0xb87bce61	-6.003527e-05
8	0x3c6803ac	0.014161032
9	0xbc0d84a6	-0.008637583
10	0x3cba8364	0.02276773
11	0x3baa9856	0.005206148
12	0xbc98b388	-0.018640295
13	0x3caa3659	0.020777868
14	0xbc0914f0	-0.008366808
15	0xbc8beaf6	-0.017079812
16	0xbca99247	-0.020699633
17	0xb2a89da5	-1.9629462e-08
18	0x3c9e473f	0.019321082
19	0x3bb6d79d	0.0055799023
20	0xbb96c1ae	-0.004600725
21	0x3c1d239f	0.009591012
22	0x3c7e94e2	0.015538426
23	0xbb2d9ac5	-0.0026489955
24	0x3bbc356c	0.005743673
25	0xbcac720e	-0.02105048
26	0x3b04edcc	0.002028334
27	0xbb0ec3a9	-0.0021784103
28	0xbcddbcae	-0.027067509
29	0x3c80439a	0.015657235
30	0x3c25d8d6	0.0101224985
31	0xbc8a4176	-0.016876917
32	0xbca36ec1	-0.019950273
33	0xbab2807a	-0.0013618611
34	0xbc6fdcf9	-0.014640086
35	0x3c32ae49	0.010905811
36	0xb3777333	-5.7613942e-08
37	0xbca6a96a	-0.020344455
38	0x3bb23aab	0.0054391227
39	0x3c9f1aaf	0.019421903
40	0x3c9555b8	0.01822935
41	0xb407ecd6	-1.2659015e-07
42	0x3c3a9c0b	0.011389743
43	0x3c869e22	0.016432825
44	0xbc58679e	-0.013208298
45	0x3bc9850f	0.006149895
46	0xbc37ad8c	-0.01121081
47	0xbb5d4418	-0.003376251
48	0x39c20a4c	0.00037010235
49	0x3b6ca195	0.0036107053
50	0x3bd34412	0.0064473236
51	0xbb7b3cc4	-0.003833578
52	0xbc506cc4	-0.012721244
53	0x3ca8b81e	0.020595606
54	0xbb92dc93	-0.004481861
55	0xbb2d0649	-0.0026401451
56	0x3b98d807	0.0046644243
57	0xbc21c85f	-0.009874432
58	0x3c8545c7	0.016268624
59	0xbc66429c	-0.014053967
60	0x334c2c36	4.753766e-08
61	0xbc871512	-0.01648954
62	0x3c6b4521	0.014359743
63	0x3c0660e4	0.008201811
64	0x3c3308b3	0.010927367
65	0xbcbf8a20	-0.023381293
66	0x3c1e7c7f	0.009673237
67	0x3bd80a6a	0.0065930383
68	0xbc6a1a8a	-0.014288554
69	0x3c8fc0c8	0.01754798
70	0xba629168	-0.0008642883
71	0xbaa39f15	-0.0012483323
72	0xbbdb4cf7	-0.0066925245
73	0x3b18a5b2	0.0023292121
74	0xbc278a8d	-0.010225904
75	0x3c7f99de	0.01560065
76	0x333279c0	4.1554586e-08
77	0x3c3db064	0.011577699
78	0x3c67dada	0.014151299
79	0x3bd8ba1c	0.006613983
80	0xbc3992bf	-0.011326491
81	0x3c86e7ef	0.016468016
82	0xbc4501d1	-0.012024359
83	0xbbb967b5	-0.005658115
84	0x3c2657d9	0.01015278
85	0x3c3a6f41	0.011379064
86	0xb8e9605a	-0.00011128253
87	0xbc7fbf66	-0.015609598
88	0xbc921bcf	-0.017835526
89	0xbca5fdf1	-0.02026269
90	0x3ca36602	0.019946102
91	0xbcb18b4b	-0.021672865
92	0xbbda8833	-0.0066690682
93	0x3c7ee83d	0.0155583
94	0x3c75dc4f	0.015006139
95	0x3c7369e3	0.014856788

Encoder.2.weight f4 [96]
0	0x3f7a0f67	0.9767975
1	0x3f7be1fd	0.98391706
2	0x3f7a1d84	0.9770129
3	0x3f7a6040	0.97803116
4	0x3f7a4fd6	0.9777807
5	0x3f7a38bf	0.9774284
6	0x3f7ab9e8	0.9793992
7	0x3f7ad5d8	0.9798255
8	0x3f7b211d	0.980974
9	0x3f7b00d9	0.9804817
10	0x3f7bba55	0.98331195
11	0x3f7b1e5d	0.98093206
12	0x3f7ad4cc	0.9798095
13	0x3f7a1429	0.9768701
14	0x3f7aa1eb	0.9790332
15	0x3f7aa5e4	0.9790938
16	0x3f7a6511	0.97810465
17	0x3f7a5fc2	0.97802365
18	0x3f7b9829	0.9827905
19	0x3f7be071	0.98389345
20	0x3f7a90d2	0.9787723
21	0x3f792a8e	0.9733056
22	0x3f7a3b95	0.97747165
23	0x3f7af92e	0.9803647
24	0x3f7a871e	0.9786242
25	0x3f7b8f58	0.982656
26	0x3f7abb41	0.97941977
27	0x3f7ab1ca	0.97927535
28	0x3f7ab4a9	0.97931916
29	0x3f7a1d4e	0.97700965
30	0x3f79c72d	0.97569543
31	0x3f7c7fe0	0.9863262
32	0x3f7a9908	0.9788976
33	0x3f7b0ede	0.9806956
34	0x3f79b6e8	0.9754472
35	0x3f79d47b	0.97589844
36	0x3f7aaaa9	0.97916657
37	0x3f7a2413	0.97711295
38	0x3f7ac7d7	0.9796118
39	0x3f7c396d	0.98525125
40	0x3f7ac939	0.9796329
41	0x3f7a4e76	0.9777597
42	0x3f79a854	0.97522473
43	0x3f7a364c	0.977391
44	0x3f7a3bdb	0.9774758
45	0x3f7b26c8	0.9810605
46	0x3f7a23f1	0.9771109
47	0x3f7ab87d	0.97937757
48	0x3f79e605	0.97616607
49	0x3f7a0afc	0.9767301
50	0x3f7b374d	0.9813126
51	0x3f7a6e39	0.97824436
52	0x3f7a86cd	0.9786194
53	0x3f7a0388	0.9766164
54	0x3f7babdb	0.98309106
55	0x3f7a62b2	0.9780685
56	0x3f7a1aad	0.97696954
57	0x3f7b6185	0.9819568
58	0x3f7b20f2	0.98097146
59	0x3f7a699c	0.978174
60	0x3f7a3c0a	0.9774786
61	0x3f7a521c	0.9778154
62	0x3f7af6c0	0.9803276
63	0x3f7a96fd	0.9788664
64	0x3f7a027a	0.9766003
65	0x3f7a2ba3	0.97722834
66	0x3f7db559	0.9910484
67	0x3f7a1028	0.976809
68	0x3f7a6128	0.978045
69	0x3f7a97e3	0.9788801
70	0x3f7ad5f2	0.97982705
71	0x3f7c04e4	0.9844496
72	0x3f7b1951	0.98085505
73	0x3f7afa02	0.9803773
74	0x3f79d272	0.9758674
75	0x3f7a1e1b	0.9770219
76	0x3f7b3965	0.9813445
77	0x3f7aba79	0.97940785
78	0x3f7a8994	0.9786618
79	0x3f7a4248	0.9775739
80	0x3f7ab1df	0.9792766
81	0x3f7a96e6	0.978865
82	0x3f7a914f	0.97877973
83	0x3f7b0589	0.9805532
84	0x3f7a6528	0.978106
85	0x3f7ac144	0.9795115
86	0x3f7976b1	0.97446734
87	0x3f7ade33	0.979953
88	0x3f7beab4	0.98405004
89	0x3f7a7b5d	0.9784449
90	0x3f7ace9a	0.979715
91	0x3f7bc06f	0.98340505
92	0x3f79ebaf	0.9762525
93	0x3f7ab80f	0.979371
94	0x3f7acb6b	0.9796664
95	0x3f7b3a13	0.9813549

Encoder.2.bias f4 [96]
0	0xbc5f8b92	-0.013644116
1	0xba9842b7	-0.0011616562
2	0xbb6b5d5f	-0.0035913808
3	0x3b906933	0.004407072
4	0xbc9a6bac	-0.01885017
5	0x3be1fa02	0.0068962583
6	0xbc22f72c	-0.009946626
7	0xbad7e47b	-0.0016471291
8	0x3b99681a	0.0046815993
9	0xbba21120	-0.004945889
10	0x3a01c1b7	0.0004949825
11	0xbaf35d92	-0.0018567315
12	0x3b2c98a2	0.0026336093
13	0xbbcfbfe4	-0.006340014
14	0xbbb6c9ef	-0.0055782716
15	0x3c173a05	0.0092301415
16	0x3c93e023	0.018051213
17	0x3b23de4e	0.002500433
18	0x3bb1e6a8	0.0054291077
19	0x3ba9bbf1	0.005179875
20	0xbbf03a89	-0.0073311967
21	0xbc878f2d	-0.016547764
22	0xbb033c24	-0.002002486
23	0x3acf3c96	0.0015810903
24	0xbb3a4611	-0.002842311
25	0x3c6ad439	0.014332824
26	0x3c7375d5	0.014859636
27	0xbc00c5a0	-0.0078596175
28	0xbba7d713	-0.0051220744
29	0xbadc85fd	-0.00168246
30	0xbabe9ff7	-0.0014543523
31	0x3bdbf384	0.006712379
32	0xbb8e9cac	-0.004352173
33	0xbc6de400	-0.0145196915
34	0x3af48f28	0.0018658387
35	0x3b08fab8	0.0020901393
36	0x3c5dcad3	0.013537127
37	0xbbdad199	-0.006677818
38	0x3c51aa4a	0.012796948
39	0x3a1cf0d0	0.00059868116
40	0x3b72e13c	0.003706052
41	0x3bd75d59	0.006572407
42	0x39cf4369	0.0003953234
43	0xbc14fe55	-0.009093841
44	0x3b001546	0.001954393
45	0xbcbfbe9a	-0.023406316
46	0x3b189ea6	0.0023287921
47	0xbbfc7703	-0.007704617
48	0xbbee53f3	-0.007273191
49	0xbbccdab6	-0.0062516583
50	0xbc1c7f9f	-0.009551912
51	0x3ba3914a	0.004991685
52	0xbc05390b	-0.008131276
53	0x3a5b65bd	0.0008369347
54	0xbbcffbfb	-0.006347177
55	0xbb5124af	-0.0031912734
56	0xbc078e56	-0.008273682
57	0xbb8f7d33	-0.0043789386
58	0xbbeba6b3	-0.007191503
59	0xbb8f01fe	-0.004364251
60	0x3c3c954f	0.011510207
61	0xbc549dce	-0.012977077
62	0x3c671ef4	0.014106501
63	0x3c2587eb	0.010103206
64	0xbba79bca	-0.005115007
65	0x3c626ca5	0.013819848
66	0xbb41ef58	-0.0029592123
67	0x3c2b1899	0.010442876
68	0x3b4c24d9	0.0031149893
69	0x3a415308	0.00073747383
70	0xba184a24	-0.00058093877
71	0x3b4cf288	0.003127249
72	0xbc607fe7	-0.013702369
73	0x3b33b849	0.0027423075
74	0xbc02e00d	-0.007987988
75	0xbc34b9b1	-0.0110306
76	0x3b7e72b1	0.0038825686
77	0x3af8012e	0.001892125
78	0xbcb70666	-0.022341918
79	0xbc5ecdb4	-0.013598848
80	0x3c8a8775	0.016910294
81	0x3ab3b0ba	0.0013709285
82	0x3c0e4122	0.008682521
83	0x3c143338	0.009045415
84	0x3b435ea6	0.0029811054
85	0x39856e45	0.00025449894
86	0x3b94fa4f	0.0045464407
87	0x3c7bc366	0.015366411
88	0x3b2dd1b8	0.0026522707
89	0x3b67c57f	0.003536552
90	0x3baf9cc7	0.0053592655
91	0xbaf28c47	-0.0018504941
92	0x3bc27009	0.005933766
93	0xba153d8a	-0.0005693069
94	0xba306ef7	-0.0006730402
95	0xbaec7dfa	-0.0018042915

Encoder.2.running_mean f4 [96]
0	0xbbbf7f0a	-0.0058440017
1	0xbb37f3f8	-0.0028069
2	0x3b985ed0	0.0046499744
3	0x3e08d233	0.13361435
4	0x3b1cd60b	0.002393129
5	0xbd43d309	-0.04780868
6	0xbba51e13	-0.0050389855
7	0x3e5b087c	0.21389955
8	0x3e3bfb09	0.18357481
9	0x3e2c147e	0.16804692
10	0x3e0f3cde	0.13988063
11	0xbce3b29d	-0.02779513
12	0xbbd5908d	-0.006517476
13	0xbbd43f8d	-0.0064773024
14	0x3b4f96b7	0.0031675526
15	0x3e4154b1	0.18879963
16	0xbcc446a4	-0.023959465
17	0x3e55538e	0.20832655
18	0x3ae55765	0.0017497359
19	0xbc5b6ab3	-0.013392138
20	0x3bbbba1a	0.005728972
21	0x3cc4ff0e	0.0240474
22	0x3e429c67	0.19004975
23	0xbcbd6d02	-0.023123268
24	0xbac1cd27	-0.0014785872
25	0xbd1e2faa	-0.038619675
26	0xbcf6c057	-0.030121012
27	0x3ce160d6	0.027511995
28	0xbd03a333	-0.03213806
29	0x3b0ccc3f	0.0021484045
30	0x3d8f97e8	0.07011396
31	0xbcd76314	-0.026292361
32	0x39cc3bcb	0.0003895446
33	0xbc502fc4	-0.012706701
34	0x3c75d68e	0.015004767
35	0xbc2e4484	-0.010636453
36	0xbd3e8a5e	-0.046518676
37	0xbc785fda	-0.015159572
38	0xbbe5603e	-0.0069999984
39	0xbba4a0fe	-0.0050240746
40	0xbd34d616	-0.04414948
41	0xbce6f750	-0.0281941
42	0x3dd6c38d	0.10486517
43	0xbc07b0b8	-0.008281879
44	0xbd1e30e2	-0.038620837
45	0x39971cd7	0.00028822452
46	0xbb91d140	-0.0044499934
47	0x3ba0f5b3	0.004912102
48	0xbb03c3e5	-0.0020105776
49	0x3e015b8a	0.12632576
50	0x3e7e9656	0.24862036
51	0xbb8e4409	-0.0043416065
52	0xbd05f05d	-0.03269993
53	0x3dbce145	0.09222654
54	0x3e5f4969	0.21805348
55	0xbc92706d	-0.017875874
56	0xbcfcc9d8	-0.030857965
57	0xbb4dbd30	-0.0031393282
58	0xbc1410e7	-0.009037233
59	0xbb06f6f0	-0.0020593964
60	0xbd32be8c	-0.04363875
61	0xbb85530e	-0.004068739
62	0xbcca12dc	-0.024667196
63	0x3dc1a26c	0.09454808
64	0x3b6414ce	0.003480244
65	0xbd175d8d	-0.03695445
66	0xbb6abbd5	-0.0035817523
67	0xbb8aecf8	-0.0042396747
68	0x3da38daa	0.07986005
69	0xbd3fee9f	-0.046858426
70	0xbcdd305a	-0.027000595
71	0x3e17427b	0.14771454
72	0xbb7b939c	-0.0038387543
73	0xbce4f6f2	-0.027949784
74	0xbbce56b6	-0.006296958
75	0xbbb12b0d	-0.0054067434
76	0x3e472937	0.19449316
77	0xbc9fe1ea	-0.019516904
78	0x3e311666	0.172937
79	0xbaa79edc	-0.0012788433
80	0xbb5f4940	-0.003407076
81	0xbb304fe0	-0.0026903078
82	0xbd25f29f	-0.040514585
83	0xbd361f8f	-0.04446369
84	0x3e019e26	0.12657985
85	0x3da657ce	0.08122216
86	0xbd11e643	-0.035619985
87	0xbcba598b	-0.022747776
88	0x3e2ccf44	0.1687594
89	0x3dd084e9	0.101816006
90	0x3dcec4e2	0.10096146
91	0xbcb661bf	-0.022263406
92	0xbd167e7b	-0.036741715
93	0xbd530ac6	-0.051523946
94	0x3dbe92f5	0.093053736
95	0x3dcf68a6	0.10127382

Encoder.2.running_var f4 [96]
0	0x3a216c19	0.00061577704
1	0x39cc5917	0.0003897629
2	0x39d989d8	0.00041492167
3	0x3b3e0148	0.0028992463
4	0x3945a9f3	0.00018850695
5	0x3987358d	0.00025789105
6	0x39451319	0.00018794498
7	0x3beef085	0.0072918558
8	0x3b3db2ad	0.002894561
9	0x3b7a2370	0.0038168095
10	0x3ab45c2b	0.0013760378
11	0x388b31c4	6.637306e-05
12	0x399584f7	0.0002851856
13	0x39a2f757	0.0003108333
14	0x39b4b7f5	0.00034469334
15	0x3b901675	0.0043972083
16	0x383f7ede	4.5656103e-05
17	0x3b649e99	0.003488457
18	0x3987d0c4	0.0002590475
19	0x3936d8bc	0.00017437612
20	0x39df0d22	0.0004254366
21	0x399d0e1c	0.00029955886
22	0x3b8623b4	0.0040936116
23	0x3916e1a6	0.00014389175
24	0x39f61067	0.00046932997
25	0x3967a6c4	0.00022092002
26	0x38bd4b24	9.026218e-05
27	0x39c4ea40	0.00037558563
28	0x390703af	0.00012875976
29	0x39d17c2f	0.0003995611
30	0x3ace2602	0.001572788
31	0x38fe193e	0.000121163655
32	0x39cc40d8	0.00038958224
33	0x39031f6f	0.00012504843
34	0x399fa7b4	0.00030451792
35	0x37bb4d52	2.2328142e-05
36	0x3930840f	0.00016833864
37	0x39c6c1cc	0.00037909893
38	0x3a1b2b6e	0.0005919252
39	0x39cecfd8	0.00039446237
40	0x3988e57b	0.00026110918
41	0x389be34b	7.4333126e-05
42	0x3b4a81d2	0.0030900133
43	0x3a086f4f	0.00052045746
44	0x397ab824	0.00023910456
45	0x39ca65c6	0.0003860427
46	0x3a13ae32	0.0005633562
47	0x39bd08cc	0.00036055443
48	0x3a7aff3d	0.00095747766
49	0x3b49b247	0.0030776428
50	0x3bcf4513	0.006325373
51	0x3a3ab597	0.0007122396
52	0x38d17915	9.98845e-05
53	0x3b2280ce	0.0024796012
54	0x3ba270dd	0.004957302
55	0x38e7989c	0.00011043364
56	0x391681c2	0.00014353453
57	0x39014150	0.0001232673
58	0x3998e836	0.0002916471
59	0x39d069bb	0.00039751627
60	0x399ad08b	0.00029528546
61	0x399a6927	0.00029451514
62	0x392e6bd5	0.00016634104
63	0x3a9e0909	0.0012057136
64	0x39faeace	0.0004785866
65	0x392fb525	0.00016756782
66	0x3a132079	0.0005612444
67	0x394f315d	0.00019759448
68	0x3a583bc4	0.0008248652
69	0x394b0cfa	0.00019364423
70	0x37c9b618	2.4045861e-05
71	0x3b7999c3	0.0038086034
72	0x3a12de22	0.00056025584
73	0x38c2de5f	9.292061e-05
74	0x3a3204b6	0.0006790863
75	0x3994cb58	0.00028380263
76	0x3ba3ba88	0.0049966015
77	0x388d4b3a	6.737416e-05
78	0x3b2c3e81	0.0026282372
79	0x39450437	0.00018788954
80	0x3846e42f	4.741939e-05
81	0x39442c3c	0.00018708495
82	0x398e8a0b	0.000271872
83	0x3963cbaa	0.00021724278
84	0x3abf1ab5	0.0014580103
85	0x3af371f9	0.0018573395
86	0x3937bfa1	0.00017523627
87	0x39374282	0.00017477016
88	0x3b5246d3	0.0032085672
89	0x3b79e042	0.0038128053
90	0x3abdd5dd	0.0014483292
91	0x3900c66c	0.00012280949
92	0x394be3df	0.00019444477
93	0x39ae4083	0.0003323593
94	0x3ab82041	0.0014047698
95	0x3ab56aba	0.0013841011

Encoder.4.weight f4 [48, 96, 3, 3]
0	0xbcd75e5a	-0.026290108
1	0xbcca197f	-0.02467036
2	0xbcc9a452	-0.024614487
3	0xbd838bd7	-0.06423157
4	0x3cd0650a	0.025438804
5	0xbcbe2905	-0.023212919
6	0xbd171964	-0.03688945
7	0xbd1b8d97	-0.037976827
8	0x3bab351c	0.005224837
9	0xbcc551b6	-0.024086814
10	0x3c706613	0.014672774
11	0x3d5f05e1	0.054448966
12	0x3d89b598	0.067240894
13	0xba6bafa7	-0.0008990713
14	0xbd876edf	-0.06612944
15	0x3d477a87	0.048700836
16	0xbd0cd726	-0.03438487
17	0x3d9b5676	0.075848505
18	0xbcff68ea	-0.031177957
19	0xbcdaa151	-0.02668825
20	0x3d5dfb4d	0.054194737
21	0xbc4b1628	-0.012395419
22	0xb9e3f338	-0.00043478026
23	0xbbb47cd6	-0.0055080457
24	0x3d52226f	0.05130237
25	0xbcc549d2	-0.024083052
26	0x3b850910	0.004059918
27	0x3ccb7a4b	0.024838587
28	0x3c4c8852	0.012483673
29	0x3c572c58	0.013133131
30	0x3cb9caa4	0.022679634
31	0xbc6bc77f	-0.014390825
32	0xbc8ae482	-0.016954664
33	0x3c91016b	0.017700871
34	0x3d047d22	0.0323459
35	0xbd32a530	-0.043614566
36	0x3c125782	0.008931996
37	0x3d0587b6	0.032600127
38	0x3d04c7de	0.03241717
39	0xbd90570c	-0.07047853
40	0x3d71ce0e	0.0590344
41	0x3de0df23	0.1098006
42	0x3bade655	0.0053069987
43	0xbd844cff	-0.06459998
44	0x3d6692f1	0.056292478
45	0xbcd479cb	-0.025936982
46	0x3d279b60	0.04091966
47	0xbd580ecb	-0.052748483
48	0xbd98acc3	-0.07454827
49	0x3cd3714a	0.025810856
50	0xbdbf4255	-0.09338824
51	0xbce0a294	-0.027421273
52	0x3d146f9b	0.036239248
53	0xbb0b1ef4	-0.0021228166
54	0x3d6dd440	0.058063745
55	0x3bfe8963	0.0077678426
56	0xbdb0acb6	-0.08626692
57	0xbd645a6f	-0.055750307
58	0x3d52dfea	0.051483072
59	0x3d561106	0.05226233
60	0x3d222b6e	0.0395922
61	0xbcc488cd	-0.023991013
62	0x3dacf3a5	0.08444909
63	0xbbd2e417	-0.006435882
64	0x3c71e026	0.014762914
65	0x3abea30c	0.0014544441
66	0xbd7653b2	-0.06013841
67	0x3baede96	0.005336593
68	0xbd8824ca	-0.06647642
69	0x3ad06d4c	0.0015901714
70	0xbd112ccc	-0.035443112
71	0x3d179f1c	0.037016973
72	0x3d5f2651	0.0544799
73	0xbca53b82	-0.020169977
74	0x3c17ac94	0.009257454
75	0x3cdf09b9	0.027226316
76	0xbd7656cb	-0.060141366
77	0xbc57e325	-0.013176714
78	0x3c8ba0f8	0.01704453
79	0x3d251e3e	0.040312044
80	0x3da85569	0.08219416
81	0xbc1d2ab8	-0.0095927045
82	0x3bcc22ba	0.0062297257
83	0x3d001bfb	0.031276684
84	0xbb261043	-0.0025339283
85	0xbc35f64a	-0.011106083
86	0xbc7e23b6	-0.015511444
87	0xba5ac473	-0.0008345313
88	0xbbf1efea	-0.0073833363
89	0x3d46fd2b	0.048581284
90	0x3cd640e4	0.02615399
91	0xbd314faa	-0.043288864
92	0xbc88c6a4	-0.016696282
93	0x3d51ae11	0.051191393
94	0xbd3871a2	-0.045030244
95	0xbd032f65	-0.03202762
96	0x3cca2e19	0.024680184
97	0xbd2ec8c4	-0.042671934
98	0x3b80196a	0.0039092796
99	0xbde09785	-0.109664
100	0xbbcc52b2	-0.006235444
101	0xbd3928fb	-0.045205098
102	0xbcdc65a1	-0.02690393
103	0xbd55e455	-0.052219708
104	0x3dafe6d9	0.085889526
105	0xbd376389	-0.04477266
106	0x3cacabdf	0.021078048
107	0xbd78e230	-0.060762584
108	0x3d0387ce	0.032111935
109	0x3cf5b7f9	0.029994952
110	0xbd35359b	-0.044240575
111	0x3d6b2ea1	0.057417516
112	0x3b3f1d64	0.0029161805
113	0xbafe9530	-0.0019423123
114	0x3d7e9639	0.062154982
115	0x3dd9d0ca	0.106355265
116	0xbd5efe09	-0.054441486
117	0x3dcccd75	0.10000125
118	0x3cd39c56	0.025831383
119	0xbc9bf8a2	-0.019039456
120	0xbc8b0d47	-0.016974105
121	0xbd2f61a9	-0.042817745
122	0xbd28b712	-0.041190214
123	0xbc9230ef	-0.017845599
124	0xbd22b2d1	-0.039721314
125	0x3d0f4470	0.034977376
126	0xbd9710ab	-0.07376226
127	0x3d45b6c6	0.04827001
128	0xbd9fb7ac	-0.077987045
129	0x3d46445f	0.048405048
130	0xbcc1ddf3	-0.023665404
131	0xbd510baf	-0.051036533
132	0xbd6e2254	-0.058138207
133	0xbc792dc6	-0.015208667
134	0x3dd3f0f3	0.10348692
135	0x3caa48e8	0.020786718
136	0x3cc1b408	0.023645416
137	0x3c320a98	0.010866784
138	0xbd0d9ce2	-0.034573443
139	0x3ca9676b	0.020679196
140	0x3ba2dc96	0.0049701435
141	0x3d8686b2	0.0656866
142	0x3d9e5fe9	0.07733137
143	0x3d103be1	0.035213355
144	0xbd5b0436	-0.053470813
145	0xbc63eb0a	-0.013911018
146	0x3b9a123d	0.004701881
147	0x3d2d00f8	0.042237252
148	0x3ce2f4c0	0.027704597
149	0xbd8a9ac8	-0.067678034
150	0x3af424c7	0.0018626683
151	0xbd431194	-0.047624186
152	0x3c2829b2	0.010263847
153	0x3c86544c	0.016397618
154	0xbba79916	-0.005114685
155	0x3c2b069d	0.010438588
156	0x3d29d60a	0.04146389
157	0xbcd3fe48	-0.025878087
158	0x3d3ae21b	0.045625787
159	0xbdb5e291	-0.08881105
160	0x3d28c2a6	0.041201256
161	0xbd3b7760	-0.04576814
162	0xbbc268a9	-0.0059328866
163	0x3d40584f	0.046959218
164	0x3c661569	0.0140431905
165	0x3ca99e17	0.020705266
166	0xbd83d363	-0.06436803
167	0x3d26a97c	0.040688977
168	0x3d88af89	0.06674106
169	0x3d8bf9b2	0.06834735
170	0xbd7031c8	-0.058641225
171	0xbacb0606	-0.0015489466
172	0x3c9794d1	0.018503578
173	0xbbb49864	-0.0055113304
174	0x3d259402	0.040424354
175	0xbd5cecfd	-0.053936947
176	0x3d0ec466	0.03485527
177	0x3d03385a	0.032036163
178	0xbbeb6d06	-0.0071846275
179	0x3d470032	0.04858417
180	0xbd3b6288	-0.045748264
181	0x3c710afe	0.014712093
182	0x3c78c44a	0.015183518
183	0x3d39e16f	0.045381006
184	0x3d69cd30	0.057080448
185	0xbda22930	-0.07918012
186	0x3c849036	0.016182046
187	0xbb7718a0	-0.0037703887
188	0x3d952abc	0.072835416
189	0xbd8016cb	-0.062543474
190	0xbd73368e	-0.0593782
191	0x3cc4a543	0.024004584
192	0xbb9f3a11	-0.004859217
193	0x3c754256	0.014969429
194	0x3c841cc4	0.016126998
195	0x3c6f19e3	0.014593574
196	0x3cd211e7	0.025643302
197	0x3b459adc	0.0030152118
198	0x3d12e7ff	0.03586578
199	0xbd8f16c8	-0.06986767
200	0x3bc8bd37	0.006126072
201	0xbd0cdf0c	-0.0343924
202	0x3c2cd40b	0.010548602
203	0x3dd48a50	0.103779435
204	0xbd1d5d1e	-0.03841888
205	0x3cadbaee	0.0212073
206	0x3b62925a	0.0034572096
207	0xbd87ee58	-0.06637257
208	0xbcd33b7c	-0.0257852
209	0xbbb36372	-0.0054745013
210	0xbd812dd7	-0.063075714
211	0xbbe70537	-0.007050182
212	0xbb15ebf0	-0.0022876225
213	0x3e3a41eb	0.18189208
214	0x3d6af3e0	0.057361484
215	0x3ba5d932	0.005061292
216	0xbd624526	-0.055241726
217	0x3c19bb35	0.009383013
218	0xbda487f9	-0.08033747
219	0xbd1d61d4	-0.038423374
220	0x39a677a9	0.0003175114
221	0x3d20a958	0.039224
222	0x3c1a0086	0.009399539
223	0x3c85d9d0	0.016339213
224	0xbc125a75	-0.008932699
225	0xbb569ae9	-0.0032746142
226	0x3c887b7b	0.016660443
227	0xbca6d503	-0.020365244
228	0xbd98de52	-0.07464279
229	0xbd81e478	-0.06342405
230	0xbd79858a	-0.06091837
231	0x3c7c93b3	0.015416074
232	0xbd137ecf	-0.036009606
233	0x3b858c8d	0.004075593
234	0xbcfe27e4	-0.03102488
235	0xbcd79e27	-0.02632053
236	0x3d24f9a0	0.040277123
237	0xbd36a1ce	-0.044587903
238	0xbcc807a6	-0.02441771
239	0xbd4295ef	-0.04750627
240	0x3d8b6cee	0.06807886
241	0x3b8bb05a	0.004262966
242	0xbb67abd6	-0.0035350225
243	0xbda0ec66	-0.078575894
244	0xbc158738	-0.009126477
245	0x3ccd7898	0.025081918
246	0xbd1f5c11	-0.03890616
247	0xbdec9a39	-0.11552853
248	0xbc2cb482	-0.010541083
249	0x3945804d	0.0001883518
250	0x3e14c980	0.14529991
251	0xbce64848	-0.028110638
252	0x3ced68e1	0.028980674
253	0xbd4a9a5d	-0.04946362
254	0x3dcfe87d	0.101517655
255	0x3c0749b8	0.008257322

Encoder.4.bias f4 [48]
0	0x3c2fba0f	0.010725512
1	0x3c97df9e	0.018539246
2	0x3a91b2a2	0.0011115859
3	0x3b2636aa	0.0025362172
4	0xbc0b06eb	-0.008485536
5	0xbbdc5ad4	-0.0067246947
6	0xbcb8eac7	-0.022572888
7	0xbccc5661	-0.024943532
8	0xbc7d1520	-0.015446931
9	0xbcbfe36a	-0.02342387
10	0xbc853301	-0.016259672
11	0x3bc77a0d	0.0060875476
12	0xbc86fc51	-0.016477736
13	0xbca823b1	-0.020524831
14	0xbccd6fe5	-0.02507777
15	0x3cb0a2b7	0.021561963
16	0x3c85d255	0.016335646
17	0xbcc8a13e	-0.024490949
18	0xbcb9328f	-0.022607116
19	0x3bc68b0c	0.006059056
20	0x3c9f0307	0.019410623
21	0xbd48425f	-0.04889142
22	0xbc395551	-0.011311845
23	0xbc1171cf	-0.008877232
24	0x3c2d2ef5	0.010570277
25	0xbc9df012	-0.019279514
26	0x3bec37db	0.007208807
27	0xbc4393ad	-0.011937064
28	0xbba77997	-0.00511093
29	0x3cc3d0d5	0.02390329
30	0xbd0947c4	-0.033515707
31	0x3c0993d8	0.008397065
32	0xbbdfe03c	-0.0068321507
33	0xbd02a072	-0.031891294
34	0x3c517bd3	0.01278587
35	0x3c57b0fd	0.013164756
36	0x3c3030b2	0.010753797
37	0xbd14effe	-0.036361687
38	0xbd0943f4	-0.03351207
39	0xbccdcdb0	-0.025122494
40	0xba431e08	-0.00074431347
41	0xbcfbade5	-0.030722568
42	0x3b095bd8	0.0020959284
43	0x3c8f657a	0.017504442
44	0xbd0d032a	-0.034426846
45	0x3c83f672	0.016108725
46	0x3b79c0b1	0.0038109238
47	0xbc0a4197	-0.008438489

Encoder.6.weight f4 [48]
0	0x3f7c026e	0.9844121
1	0x3f79988e	0.97498405
2	0x3f7c0425	0.98443824
3	0x3f7a9be2	0.9789411
4	0x3f7b2b82	0.9811326
5	0x3f7d41ec	0.98928714
6	0x3f79204b	0.973149
7	0x3f7cf7f7	0.98815864
8	0x3f7c083c	0.98450065
9	0x3f7af027	0.98022693
10	0x3f800441	1.0001298
11	0x3f7b8590	0.98250675
12	0x3f7a6091	0.978036
13	0x3f7eb17b	0.99489564
14	0x3f7f8b46	0.9982189
15	0x3f7bcc64	0.9835875
16	0x3f7ad0e9	0.9797502
17	0x3f7dfee7	0.99217075
18	0x3f79da90	0.97599125
19	0x3f7a5af4	0.97795033
20	0x3f7c7363	0.98613566
21	0x3f7c14fa	0.9846951
22	0x3f7a4740	0.9776497
23	0x3f7a3504	0.97737145
24	0x3f79ce26	0.9758018
25	0x3f801ccf	1.0008792
26	0x3f7b6a8c	0.9820945
27	0x3f7e0def	0.9924001
28	0x3f7a5f1d	0.9780138
29	0x3f7b92f5	0.98271114
30	0x3f7cea86	0.98795354
31	0x3f7974d4	0.9744389
32	0x3f7ac47d	0.9795607
33	0x3f7bfc88	0.9843221
34	0x3f7b9811	0.9827891
35	0x3f7adbd0	0.9799166
36	0x3f7d2212	0.9888011
37	0x3f7ce50a	0.98786986
38	0x3f7ab665	0.9793456
39	0x3f7c20b7	0.9848742
40	0x3f7b79b3	0.98232573
41	0x3f797556	0.97444665
42	0x3f7bc855	0.9835256
43	0x3f7c10ad	0.98462945
44	0x3f7c47b8	0.98546934
45	0x3f7c04a5	0.98444587
46	0x3f7d71b9	0.9900165
47	0x3f7b68ef	0.9820699

Encoder.6.bias f4 [48]
0	0x3c3d8a22	0.011568578
1	0xbc5d36db	-0.013501848
2	0x3bc2a266	0.0059397696
3	0x3c59039b	0.0132454885
4	0xbc40a2b2	-0.01175754
5	0xbc7db6fe	-0.015485523
6	0x3b81da34	0.0039627794
7	0xbc6f060f	-0.014588847
8	0xbc4e3b25	-0.012587343
9	0xbc53e257	-0.012932382
10	0xbc3c545d	-0.011494723
11	0xbc8d8254	-0.01727406
12	0xbc60a015	-0.0137100415
13	0xbc475eeb	-0.012168626
14	0xbc36f5e8	-0.011167027
15	0xbc4426cb	-0.01197214
16	0x3c3e1596	0.011601826
17	0xbc4d1c99	-0.012519025
18	0x3c182571	0.0092862705
19	0x3c14d61d	0.009084252
20	0x3c32a5ba	0.01090377
21	0xbc5c8cfc	-0.013461348
22	0xbbdc6ade	-0.0067266067
23	0xbc37146b	-0.011174302
24	0xbc72be44	-0.014815871
25	0xbc3f499f	-0.0116752675
26	0xbc54e75e	-0.012994615
27	0xbc4c420a	-0.012466917
28	0xbc4dcf5a	-0.0125616435
29	0x3c32d011	0.010913865
30	0x3c3fae20	0.0116992295
31	0xbc9909c9	-0.018681424
32	0x3c0602ad	0.008179349
33	0x3c240169	0.010010102
34	0x3ae4e6ed	0.0017463841
35	0x3c0010aa	0.007816473
36	0xbc4d2b7e	-0.012522576
37	0xbc4d74f8	-0.012540095
38	0x3bec130d	0.0072044195
39	0xbc7fa57b	-0.015603418
40	0x3c42d922	0.011892589
41	0xbc91539a	-0.01774006
42	0x3c3e3b8a	0.011610875
43	0xbc5444ee	-0.012955887
44	0x3c3fda8e	0.011709822
45	0x3c326aae	0.010889692
46	0xbc47bdca	-0.012191245
47	0xbc4e190c	-0.012579214

Encoder.6.running_mean f4 [48]
0	0x3f157bde	0.5839213
1	0x3f41c8b0	0.7569685
2	0x3ee18a1f	0.4405069
3	0x3f292502	0.66072094
4	0x3f3c7a23	0.73623866
5	0x3eecbfd1	0.46240094
6	0x3f489e7d	0.78366834
7	0x3ee88ad5	0.4541842
8	0x3f2187af	0.6309766
9	0x3ed23e4b	0.4106315
10	0x3f238352	0.63872254
11	0x3f22be09	0.6357122
12	0x3ef0d2b2	0.47035748
13	0x3f10d9de	0.5658244
14	0x3f0cc5b6	0.5498918
15	0x3f458df7	0.77169746
16	0x3f16be66	0.58884275
17	0x3ea6160b	0.32438692
18	0x3f0751ae	0.5285901
19	0x3f1c07a0	0.60949135
20	0x3f0c983e	0.54919803
21	0x3ed6afba	0.41930944
22	0x3f17b4ad	0.59260064
23	0x3f09bef3	0.5380699
24	0x3f417d30	0.75581646
25	0x3ef9bd2d	0.48777142
26	0x3f38f493	0.7224819
27	0x3f21be39	0.6318088
28	0x3f052178	0.52004194
29	0x3edee4a4	0.43533814
30	0x3f1616df	0.5862865
31	0x3ee9656d	0.45585194
32	0x3f07e36b	0.5308139
33	0x3f3cd29c	0.73758864
34	0x3f37a31f	0.7173328
35	0x3f5b4e9d	0.8566683
36	0x3f14f731	0.58189684
37	0x3f142684	0.5787127
38	0x3eea0da6	0.45713538
39	0x3ed4350c	0.41446722
40	0x3ef97b32	0.48726803
41	0x3ee37a8a	0.44429427
42	0x3f467914	0.775285
43	0x3f0b948a	0.5452353
44	0x3ec8ba7e	0.39204782
45	0x3f0a49ff	0.5401916
46	0x3f4e4f1b	0.80589455
47	0x3ebd6dd8	0.36997867

Encoder.6.running_var f4 [48]
0	0x3fe9a94b	1.8254789
1	0x3ffdfc53	1.9842628
2	0x3f32ca91	0.6984034
3	0x406b21df	3.6739423
4	0x40880201	4.2502446
5	0x3f722022	0.9458028
6	0x4007c00c	2.1210966
7	0x3f5c1515	0.8596967
8	0x3ff66bb7	1.9251622
9	0x3fc35923	1.5261577
10	0x4043db39	3.0602553
11	0x3fd0e926	1.6321151
12	0x3fd00aca	1.6253293
13	0x402696df	2.6029584
14	0x3f856b05	1.0423285
15	0x408d1d1c	4.4098034
16	0x403a185a	2.9077363
17	0x3fee67fe	1.8625486
18	0x40161a3f	2.345352
19	0x403c49af	2.9419973
20	0x3f764a4e	0.9620713
21	0x3f8a46ce	1.0802858
22	0x3fd62431	1.6729795
23	0x400816e3	2.126397
24	0x408689e9	4.2043347
25	0x40066b40	2.100296
26	0x40622253	3.533345
27	0x404ce16a	3.2012582
28	0x4017b514	2.3704271
29	0x3fe64b11	1.7991658
30	0x403dc268	2.9649906
31	0x3feed5c5	1.8658987
32	0x3f4fbb3a	0.8114506
33	0x40031b93	2.048558
34	0x408d6cd6	4.4195356
35	0x40beac5e	5.958541
36	0x402a93f5	2.6652806
37	0x402c6f38	2.6942883
38	0x400753a8	2.114481
39	0x3f96c98f	1.1780261
40	0x3fbe0026	1.4843795
41	0x3f9a33f6	1.2047107
42	0x409f3777	4.9755206
43	0x3f8b37f3	1.0876449
44	0x3f2ad770	0.6673498
45	0x3f87181e	1.0554235
46	0x40998897	4.7979236
47	0x4003f233	2.0616577

Encoder.8.weight f4 [3, 48, 3, 3]
0	0xbd25dc20	-0.04049313
1	0xbd8a368b	-0.067486845
2	0x3d502676	0.05081793
3	0x3c9cf2b2	0.019158695
4	0x3cc7bdf7	0.024382574
5	0x3d2fa340	0.042880297
6	0xbd3043f4	-0.043033555
7	0x3ded03aa	0.115729645
8	0x3c0c00ab	0.008545081
9	0x3ce292f5	0.027657965
10	0x3d2627f5	0.04056545
11	0xbd6a8cf4	-0.05726333
12	0x3d2c6d9f	0.04209673
13	0xbd12bb8c	-0.03582339
14	0xbda6c365	-0.08142737
15	0xbde5cd8b	-0.11220845
16	0x3d823bcb	0.06359061
17	0x3c81e316	0.015855353
18	0xbb685b9a	-0.003545499
19	0x3dcf9982	0.10136701
20	0xbd6b1f94	-0.057403162
21	0x3d8559f9	0.065113015
22	0xbd8058c0	-0.06266928
23	0xbd2e22af	-0.042513546
24	0xbd3247d8	-0.043525547
25	0x3d1da909	0.038491283
26	0x3d344964	0.044015303
27	0x3e025ef5	0.12731536
28	0xbc411709	-0.011785277
29	0xbe1b437e	-0.15162465
30	0xbc822272	-0.015885565
31	0xbd5aa944	-0.05338408
32	0x3d4cd612	0.05000884
33	0x3c312afb	0.01081347
34	0x3e013c2c	0.1262061
35	0xbd5f8a2b	-0.054575127
36	0xbdc4e05d	-0.096131064
37	0xbb7635af	-0.003756862
38	0xbde9cdc1	-0.114161976
39	0xbd73b9ea	-0.059503473
40	0xbdbc08a7	-0.09181338
41	0x3d82f072	0.063935176
42	0xbc86d66e	-0.01645967
43	0xbc8dd4e0	-0.01731342
44	0xbcbd745c	-0.023126774
45	0x3c09e8f2	0.008417355
46	0x3d5441bd	0.051820505
47	0x3c72c562	0.014817568
48	0x3d9ddb21	0.07707811
49	0x3d7921c9	0.060823236
50	0xbd45398a	-0.048150577
51	0x3d625a44	0.055261865
52	0x3d879a3c	0.06621215
53	0xbde0e630	-0.10981405
54	0xbcd183c5	-0.025575528
55	0xbca67a19	-0.020321893
56	0x3dad4095	0.08459584
57	0xbd257515	-0.04039486
58	0xbc6a81b0	-0.0143131465
59	0xbd2e0145	-0.04248168
60	0x3c094b8e	0.00837983
61	0x3dab12cd	0.08353195
62	0x3d086f04	0.033308998
63	0x3ca7fa9e	0.020505246
64	0x3c8af0c3	0.016960507
65	0x3b1ba3f7	0.0023748854
66	0x3d25f349	0.040515218
67	0x3de36dfc	0.11104962
68	0x3de7dc9a	0.11321373
69	0xbcee687f	-0.029102562
70	0xbdace808	-0.08442694
71	0xbcc878a1	-0.024471583
72	0x3d000b86	0.03126099
73	0x3d166239	0.036714766
74	0x3de377bf	0.11106824
75	0xbc28efde	-0.010311095
76	0x3cebaed8	0.028769895
77	0x3d0a5ed6	0.03378185
78	0xbd0ecc02	-0.034862526
79	0xbd21060a	-0.0393124
80	0xbd83288b	-0.06404217
81	0xbd8bf5f6	-0.06834023
82	0xbdf85ccd	-0.12127075
83	0xbd5e3815	-0.054252703
84	0xbc5403ec	-0.012940388
85	0x3d44b0c3	0.048020136
86	0x3d282aa2	0.041056283
87	0xbc72b39a	-0.014813328
88	0xbbd804c0	-0.006592363
89	0x3d14110b	0.036149066
90	0x3d2353f0	0.03987497
91	0xbe07ed08	-0.13274014
92	0xbda19d5e	-0.078913435
93	0xbc80e27e	-0.015733
94	0x3cfd21c5	0.030899892
95	0xbd9bdd0c	-0.07610521
96	0xba876079	-0.0010328434
97	0xbddc6db0	-0.10763109
98	0xbdb9f4e4	-0.09079912
99	0xbcc4c826	-0.02402122
100	0x3d053a0e	0.03252607
101	0x3d66e890	0.056374133
102	0x3d8a1d84	0.06743911
103	0x3dfa8694	0.122327
104	0x3d421df3	0.047391843
105	0xbc01f5f1	-0.007932172
106	0xbdbf6ee4	-0.093473226
107	0xbdba994f	-0.091112725
108	0xbd0b70c1	-0.034043077
109	0x3ccef506	0.02526332
110	0xb9e3cc55	-0.00043449053
111	0xbd594602	-0.05304528
112	0x3b3b6727	0.002859542
113	0xbdd9cd0b	-0.10634812
114	0x3d8e4157	0.06946056
115	0x3ccd7934	0.025082208
116	0xbd12ba4d	-0.0358222
117	0xbdac1e88	-0.08404261
118	0x3db181c2	0.086673275
119	0xbd610b10	-0.05494219
120	0xbddae9dc	-0.106891364
121	0xbcafd754	-0.021464981
122	0xbde411ce	-0.111362085
123	0xbdc750bc	-0.09732196
124	0xbdc80b4c	-0.0976778
125	0x3df370d7	0.11886757
126	0x3d8ba28a	0.06818111
127	0x3db5d2f1	0.088781245
128	0x3d66a452	0.05630905
129	0x3e19cd75	0.15019782
130	0x3d0cc092	0.034363337
131	0x3c1616a8	0.009160675
132	0x3da595f6	0.080852434
133	0x3cc8a3ac	0.024492107
134	0x3c55fc01	0.013060571
135	0xbdb9f6e3	-0.09080293
136	0x3e10dcca	0.14146724
137	0x3c391702	0.011296989
138	0xbdb92ba2	-0.090415254
139	0xbd7a09d7	-0.06104454
140	0xbdc92b46	-0.09822707
141	0xbd55d2d0	-0.052203
142	0xbe01291f	-0.12613343
143	0xbcf78724	-0.030215807
144	0xbbb41582	-0.005495728
145	0x3c652a44	0.013987128
146	0xbdbf04f5	-0.09327117
147	0x3cd67329	0.02617796
148	0xba7a3767	-0.0009544999
149	0x3d757b51	0.059932057
150	0x3d19a272	0.037508436
151	0x3d7aa1bf	0.06118941
152	0xbdc5e292	-0.096623555
153	0xbd82a1b6	-0.063785
154	0x3d7261f9	0.059175465
155	0x3c4c1477	0.012456051
156	0xbd9694c4	-0.073525935
157	0xbdcef487	-0.10105234
158	0xbc49b7af	-0.01231186
159	0xbb914a21	-0.0044338857
160	0x3c549a62	0.012976261
161	0x3c6d2c3b	0.014475877
162	0x3d660475	0.056156594
163	0x3d99474f	0.07484304
164	0xbbc71d25	-0.0060764723
165	0xbe0c0bb3	-0.13676338
166	0xbd8f9b70	-0.07012069
167	0xbcf5a888	-0.029987589
168	0x3d345533	0.044026565
169	0xbcf63b4a	-0.030057568
170	0x3d247bf0	0.04015726
171	0xbd37ab98	-0.04484138
172	0xbcd63e17	-0.026152654
173	0x3d67b36d	0.056567598
174	0x3aa0b4c4	0.0012260904
175	0xbd9b60fc	-0.07586858
176	0x3c966a44	0.018361218
177	0xbd210635	-0.03931256
178	0x3df15470	0.11783683
179	0xbdbfbc18	-0.09362048
180	0xbb6e9c5a	-0.003640911
181	0x3d5631ce	0.05229359
182	0x3d3c902d	0.046035934
183	0x3d514224	0.051088467
184	0xbe24cbbf	-0.16093348
185	0x3e1a2237	0.15052114
186	0x3c9636df	0.018336711
187	0xbd69ea89	-0.057108436
188	0x3d7fbf23	0.06243814
189	0x3d3dd294	0.0463434
190	0x3da25bce	0.079276666
191	0xbd292599	-0.04129562
192	0x3d2a6a92	0.04160554
193	0x3cbf030a	0.023316879
194	0x3c7047cb	0.014665554
195	0x3d415bb4	0.047206596
196	0xbda6e6fd	-0.08149526
197	0x3d42ca7e	0.047556393
198	0x3dbdc438	0.092659414
199	0xbcd97e05	-0.026549349
200	0x3d095546	0.03352859
201	0x3d703e66	0.058653258
202	0x3d361aa9	0.04445902
203	0x3d22dbc1	0.039760355
204	0xba1bfed1	-0.00059507514
205	0xbd61b9d3	-0.055108856
206	0xbd9504b8	-0.07276291
207	0x3d000c22	0.03126157
208	0x3d1bc7db	0.038032394
209	0xbd09eedb	-0.033675056
210	0x3d630624	0.055425778
211	0x3b99b45c	0.00469069
212	0xbcd028af	-0.025410024
213	0xbdb56373	-0.08856859
214	0x3b5a5167	0.003331268
215	0xbdd9a142	-0.106264606
216	0xbdaa65e4	-0.08320215
217	0xbd431941	-0.047631506
218	0x3cbaddfd	0.02281093
219	0x3bdcf292	0.006742784
220	0xbdd87cf9	-0.10570712
221	0xbcfbefbc	-0.030753963
222	0x3d27ec0a	0.04099659
223	0xbd59fcc5	-0.053219575
224	0xbc94223d	-0.018082732
225	0xbe198b40	-0.14994526
226	0x3d230b9f	0.039806005
227	0xbd9f2a08	-0.07771689
228	0xbe0603d1	-0.13087393
229	0xbd1acb60	-0.03779161
230	0xbc36c27d	-0.011154768
231	0x3c38c052	0.0112763215
232	0xbcf8f34b	-0.030389449
233	0xbcbe809c	-0.023254685
234	0xbb0c2d05	-0.0021389138
235	0xbdbf4571	-0.09339417
236	0xbd08858c	-0.033330485
237	0x3be519a1	0.0069915806
238	0xbca08872	-0.019596312
239	0x3c224f5c	0.009906616
240	0xbcb29f4c	-0.021804474
241	0xbd38b61c	-0.045095548
242	0xbd119a7f	-0.03554773
243	0xbd6eea2a	-0.058328785
244	0xbd04bd2f	-0.032406982
245	0xbd13bb7b	-0.036067467
246	0xbb3e4f56	-0.0029038987
247	0x3c4f0a2f	0.012636705
248	0xbd21231b	-0.03934012
249	0xbdee3047	-0.11630302
250	0x3d5bb572	0.053639837
251	0xbd92c2da	-0.07166071
252	0xbe06fd0c	-0.13182467
253	0x3c8959de	0.016766485
254	0x3d391b7b	0.045192223
255	0xbc536103	-0.012901547

Encoder.8.bias f4 [3]
0	0xbc9f44ab	-0.019441923
1	0x3cc19a3c	0.023633115
2	0xbbffa129	-0.007801194

Cluster.0.weight f4 [80, 3, 1, 1]
0	0x3dffce6f	0.12490546
1	0xbf845f46	-1.0341575
2	0x3e71cca5	0.23613222
3	0x3f39f38d	0.72637254
4	0xbe05f115	-0.13080247
5	0xbf5d64bb	-0.8648183
6	0xbe4dc2e2	-0.20093873
7	0x3e955c7c	0.29172122
8	0xbeff5ed3	-0.49877033
9	0x3f9200f7	1.1406544
10	0xbf8c7e8c	-1.0976119
11	0xbd0f2683	-0.034948837
12	0xbe814f2a	-0.2525571
13	0xbfd6a398	-1.6768675
14	0x3fcfd896	1.6237972
15	0x3e2c72ce	0.1684067
16	0x3e30b3e3	0.17256121
17	0x3e26656c	0.16249627
18	0x3ee2f58f	0.4432797
19	0x3f856695	1.042193
20	0xbca16d14	-0.019705333
21	0x3ff35ce9	1.9012729
22	0x3e9e1d8d	0.3088192
23	0x3f53a49e	0.8267306
24	0x3eb33802	0.35003668
25	0x3f4e9ba2	0.80706227
26	0xbf80fa31	-1.0076352
27	0x3eb3bbd8	0.3510425
28	0x3ed77392	0.4208036
29	0xbfb0b5dd	-1.38055
30	0xbedce61a	-0.43144304
31	0xbf883796	-1.0641963
32	0x3e1a27e4	0.1505428
33	0xbfa678d9	-1.300563
34	0xbf1f8dc2	-0.6232568
35	0x3f4f1d63	0.80904216
36	0x3faa6e5b	1.3314928
37	0x3f5fc4ee	0.87409866
38	0x3ec6950c	0.3878559
39	0x3ee53029	0.44763306
40	0x3f001770	0.5003576
41	0xbe2539ab	-0.1613528
42	0xbc33d4d4	-0.010976035
43	0x3e3641fe	0.17798612
44	0x3e4184e7	0.18898354
45	0xbf224701	-0.63389593
46	0x3d13af1c	0.03605567
47	0x3cb03423	0.021509236
48	0xbf0655bf	-0.5247459
49	0xbea11c63	-0.3146697
50	0x3ec336c3	0.38127717
51	0x3fa8dc01	1.319214
52	0xbd8d4fd3	-0.06899991
53	0x3eff815d	0.49903384
54	0x3dbab6e6	0.09116916
55	0x3f309fa6	0.68993604
56	0x3ddcbe91	0.10778535
57	0xbc6c8c61	-0.014437766
58	0x3f1c77ce	0.6112031
59	0xbe36dab4	-0.17856866
60	0x3f0c6c25	0.54852515
61	0xbf82e50f	-1.0226153
62	0xbfb3472d	-1.4006096
63	0x3f5a880e	0.8536385
64	0xbe89de07	-0.26927206
65	0xbf3d0440	-0.7383461
66	0xbf2fcffc	-0.68676734
67	0x3eebe580	0.46073532
68	0x3f5d40b5	0.8642686
69	0xbe4dde73	-0.20104389
70	0x3fd7b95c	1.6853442
71	0xbf87e84c	-1.0617766
72	0x3f9ad421	1.2095987
73	0xbf841de1	-1.0321618
74	0xc0021d1e	-2.0330272
75	0xbf159afd	-0.5843962
76	0xbea83987	-0.3285639
77	0x3f04d49a	0.51886904
78	0x3f6fc013	0.93652457
79	0xbf5f65c4	-0.8726466
80	0xbea4684b	-0.3211082
81	0xbf27e280	-0.65579987
82	0x3e7a3559	0.24434413
83	0xbf2bcf44	-0.6711314
84	0xbee18324	-0.44045365
85	0x3dea6182	0.114443794
86	0x3e5340a6	0.2063013
87	0x3ee9ec32	0.45688015
88	0xbd30997c	-0.043115124
89	0x3d911785	0.07084564
90	0xbebf6856	-0.3738429
91	0x3d16036d	0.03662436
92	0x3e4619ed	0.19345827
93	0x3f8e2efb	1.1108087
94	0xbf947123	-1.1597027
95	0x3e8a31d0	0.2699113
96	0xbfaa16ff	-1.3288268
97	0x3f427afa	0.759689
98	0x3ea9af43	0.33141527
99	0x3f7c6f24	0.9860709
100	0x3fa80681	1.3126985
101	0xbf82270b	-1.0168165
102	0xbee33316	-0.44374913
103	0xbf5e8988	-0.86928606
104	0x3e96ff45	0.2949163
105	0xbe8a3b85	-0.26998535
106	0x3f0fe857	0.562139
107	0xbf5acda8	-0.85470057
108	0x3ee8ad65	0.4544479
109	0x3fc19a9c	1.5125308
110	0x3f8cc43a	1.0997384
111	0x3f1c5581	0.6106797
112	0x3f43c464	0.76471543
113	0xbeca6857	-0.3953273
114	0xbf447208	-0.767365
115	0xbe5207e5	-0.20510824
116	0x3fc022c3	1.5010608
117	0x3f821152	1.0161536
118	0xbf6f04c3	-0.9336664
119	0xbe576087	-0.21032916
120	0x3f06fa95	0.5272611
121	0xbf70bdb1	-0.94039446
122	0xbf57479b	-0.84093636
123	0xbe9ef6de	-0.3104772
124	0xbe76ab36	-0.2408875
125	0x3e538abc	0.20658392
126	0xbea86d5d	-0.32895938
127	0xbe63fb0c	-0.22263736
128	0x3f457d74	0.7714455
129	0x3f6703ff	0.9024047
130	0xbe45f688	-0.19332325
131	0xbf800b7c	-1.0003505
132	0x3f2ff1b5	0.6872819
133	0xbe7e9e3f	-0.24865054
134	0x3e7dab66	0.24772415
135	0xbd7cf716	-0.061759077
136	0xbf595bc8	-0.8490567
137	0x3f17dbc2	0.593197
138	0x3f0417bd	0.5159872
139	0xbf5355a3	-0.82552546
140	0xbebb1cf9	-0.36545542
141	0x3e465fba	0.19372454
142	0xbefd0b1d	-0.4942254
143	0x3f1f995e	0.62343395
144	0xbeec931b	-0.46205983
145	0x3e27d761	0.16390754
146	0x3f40dda8	0.7533822
147	0x3f8003c0	1.0001144
148	0x3f7a09e2	0.9767133
149	0x3f6bfac5	0.9217952
150	0x3f10729a	0.5642487
151	0xbf4dcc88	-0.80390215
152	0x3fbff558	1.4996748
153	0xbf17d62a	-0.59311163
154	0x3f33a1f1	0.7016898
155	0x3fb62e11	1.4232808
156	0x3f0bb75b	0.54576653
157	0xbddfa6ad	-0.10920463
158	0xbf567b1b	-0.83781594
159	0x3f819d82	1.0126193
160	0xbed20ee2	-0.4102698
161	0xbdcfd915	-0.10148827
162	0xbecf4375	-0.40481153
163	0xbf8a0cda	-1.0785172
164	0xbf21a07f	-0.6313552
165	0xbe8e4ccd	-0.2779297
166	0x3f7b336a	0.98125327
167	0xbf7704b4	-0.9649155
168	0x3f8e7cfd	1.1131893
169	0xbf1cbe4c	-0.6122787
170	0x3eebab14	0.4602896
171	0xbfc89dd8	-1.567317
172	0x3dd4011a	0.103517726
173	0xbf2997b8	-0.6624713
174	0xbf3ddb86	-0.7416309
175	0x3f1c9889	0.6117025
176	0xbe142685	-0.14467819
177	0x3e78a1b1	0.2428043
178	0xbf2ea302	-0.6821748
179	0x3dcaecd9	0.09908456
180	0x3f09ab60	0.5377712
181	0xbf33e6a0	-0.7027378
182	0x3eab0c64	0.3340789
183	0x3f44b80a	0.7684332
184	0x3f1600e4	0.5859511
185	0xbe32eb52	-0.1747258
186	0x3f2432fc	0.64140296
187	0x3e4ea9a2	0.20181897
188	0xbf65906f	-0.89673513
189	0x3eafce30	0.34336996
190	0x3d3229c8	0.043496877
191	0xbef8c958	-0.48591113
192	0x3fe1c466	1.7638061
193	0xbf21270f	-0.62950224
194	0xbd91a117	-0.071108036
195	0x3e7357b1	0.2376392
196	0x3e3aed62	0.18254617
197	0xbd260b41	-0.040538076
198	0x3f3519e3	0.70742625
199	0x3edb96b1	0.42888406
200	0xbee6638f	-0.44997832
201	0x3f69a8f9	0.91273457
202	0xbf3f41c4	-0.74709725
203	0x3e627c5f	0.22117756
204	0x3f014de5	0.5050948
205	0xbf9e5166	-1.2368591
206	0x3eb55382	0.35415274
207	0x3edc5e00	0.43040466
208	0xbfda88bb	-1.7072977
209	0xc0058c4e	-2.0866885
210	0x3e6fb15b	0.234075
211	0x3f611ef7	0.87937874
212	0xbf6aaa35	-0.91665965
213	0xbfb5007c	-1.4140773
214	0xbf902076	-1.1259906
215	0xbe7ed2b1	-0.2488506
216	0x3e2b80ce	0.16748354
217	0x3e2b45e8	0.16725886
218	0xbeb268db	-0.34845623
219	0x3edfbbdf	0.43698022
220	0xbe8cb227	-0.2747967
221	0x3e0469f0	0.12931037
222	0x3fd8d40c	1.6939712
223	0x3f2f42f6	0.6846155
224	0xbf2d33d3	-0.676572
225	0x3f873ca7	1.0565385
226	0xbf3018e0	-0.68787956
227	0x3fbd4f2b	1.4789785
228	0xbf80107d	-1.0005032
229	0x3f3c81d3	0.73635596
230	0xbd5ba403	-0.05362321
231	0xbf999cc9	-1.2000972
232	0xbfd5bfed	-1.6699196
233	0x3eb90637	0.36137554
234	0x3f8b1971	1.0867139
235	0x3e33a0a7	0.17541753
236	0x3f2452dc	0.64188933
237	0x3fbe0570	1.4845409
238	0xbe9c30de	-0.30506033
239	0x3eac2db1	0.3362861

Cluster.0.bias f4 [80]
0	0x3e3ff295	0.18744881
1	0x3e8fef37	0.28112194
2	0x3ef50f0e	0.47863048
3	0x3eee504f	0.46545646
4	0x3eb9f96b	0.36323103
5	0x3e930a6e	0.28718895
6	0x3c528ede	0.012851445
7	0x3e18aab6	0.14908871
8	0xbd7e4557	-0.062077846
9	0xbeaac580	-0.33353806
10	0xbe871b2d	-0.2638792
11	0xbc07b0ba	-0.008281881
12	0xbe04bdb0	-0.12962985
13	0x3e0e4795	0.13894494
14	0xbe85e19f	-0.26148698
15	0xbddbcede	-0.10732816
16	0xbd82db40	-0.06389475
17	0xbea34d1e	-0.31894773
18	0x3f07412e	0.5283383
19	0xbf08b44b	-0.53400105
20	0x3e7d357b	0.24727432
21	0x3ee6c6aa	0.45073444
22	0x3ee381bc	0.44434917
23	0xbddc0649	-0.10743386
24	0xbea592ba	-0.32338506
25	0xbefc7ead	-0.49315396
26	0x3d6cfb3f	0.057856794
27	0xbcc19245	-0.023629317
28	0x3e212c37	0.15739523
29	0x3e8da437	0.27664348
30	0x3e382f01	0.1798668
31	0x3ebe4db2	0.37168652
32	0xbe892527	-0.26786157
33	0x3eb73f93	0.3579069
34	0x3f00bc38	0.502872
35	0xbecacc88	-0.3960917
36	0xbed84b92	-0.42245156
37	0x3efe45ca	0.4966262
38	0x3dcc7f7e	0.09985255
39	0x3e5b7b1b	0.2143368
40	0xbdec82d0	-0.11548388
41	0x3d635288	0.05549863
42	0x3eb77a5a	0.35835534
43	0xbc939084	-0.018013246
44	0xbc0b0c11	-0.008486764
45	0x3e8110d5	0.25208154
46	0x3ea370d1	0.3192201
47	0x3eaf2db1	0.34214547
48	0xbc413a71	-0.011793719
49	0x3c23801f	0.009979277
50	0xbe9622e3	-0.2932349
51	0xbeb76584	-0.35819638
52	0x3eba0717	0.36333534
53	0xbeb2a928	-0.3489468
54	0xbd89713d	-0.067110516
55	0xbe3aad97	-0.18230282
56	0x3d3e839d	0.046512235
57	0x3edb5860	0.42840862
58	0xbebba544	-0.36649525
59	0xbe0cc190	-0.13745713
60	0x3e0bbcc2	0.13646224
61	0xbeb37186	-0.3504755
62	0x3e8bd045	0.27307335
63	0xbcc0b737	-0.023524864
64	0x3ee3ebca	0.4451583
65	0xbe93b27c	-0.2884711
66	0xbe933442	-0.28750807
67	0x3d013b42	0.031550653
68	0xbd75c553	-0.060002636
69	0xbe36a9fe	-0.17838284
70	0xbf02e28f	-0.5112695
71	0x3f0870fc	0.532974
72	0xbea18d69	-0.315532
73	0xbeb63591	-0.35587743
74	0xbde0947b	-0.109658204
75	0xbea5a307	-0.32350942
76	0xbc4a6f3f	-0.012355625
77	0x3ec9a2fc	0.3938216
78	0xbe71af52	-0.23602036
79	0xbebc90e1	-0.36829284

Cluster.2.weight f4 [80]
0	0x3f797d60	0.9745693
1	0x3f790148	0.9726758
2	0x3f7a79cd	0.97842103
3	0x3f78a076	0.97119844
4	0x3f7a05c9	0.9766508
5	0x3f79a440	0.9751625
6	0x3f7926c6	0.9732479
7	0x3f7a6100	0.9780426
8	0x3f799a71	0.97501284
9	0x3f798767	0.9747223
10	0x3f79d4a3	0.9759008
11	0x3f796bde	0.9743022
12	0x3f7a1b93	0.97698325
13	0x3f79fc7c	0.97650886
14	0x3f797e1d	0.9745806
15	0x3f79a6c7	0.9752011
16	0x3f7a458f	0.9776239
17	0x3f788d2a	0.970904
18	0x3f7970ad	0.97437555
19	0x3f795c4d	0.97406465
20	0x3f79dd56	0.97603357
21	0x3f7a051d	0.9766405
22	0x3f795851	0.97400385
23	0x3f79f360	0.97636986
24	0x3f796505	0.9741977
25	0x3f7a0473	0.9766304
26	0x3f7a08a2	0.9766942
27	0x3f7a9ea3	0.9789831
28	0x3f793e7a	0.97360957
29	0x3f79c458	0.9756522
30	0x3f798b13	0.97477835
31	0x3f794277	0.9736704
32	0x3f79fd7a	0.976524
33	0x3f79aa3a	0.9752537
34	0x3f797ae0	0.9745312
35	0x3f78f95a	0.9725548
36	0x3f79f697	0.9764189
37	0x3f79a20d	0.97512895
38	0x3f79cdf5	0.9757989
39	0x3f79f495	0.9763883
40	0x3f798a50	0.97476673
41	0x3f7980f1	0.97462374
42	0x3f79ba38	0.9754977
43	0x3f7a495f	0.97768205
44	0x3f7a477d	0.9776533
45	0x3f7a53c3	0.9778406
46	0x3f796f3d	0.9743536
47	0x3f79c3bf	0.9756431
48	0x3f797a66	0.9745239
49	0x3f79c822	0.97571003
50	0x3f793739	0.9734989
51	0x3f79fda5	0.97652656
52	0x3f798055	0.97461444
53	0x3f78fcf7	0.97260994
54	0x3f7a3f77	0.9775309
55	0x3f7a5bc2	0.9779626
56	0x3f7a1731	0.9769164
57	0x3f790542	0.9727365
58	0x3f799cfd	0.9750517
59	0x3f7911e3	0.9729292
60	0x3f7a21d0	0.97707844
61	0x3f796fd8	0.97436285
62	0x3f79aeba	0.97532237
63	0x3f7950ac	0.9738872
64	0x3f7a36d6	0.97739923
65	0x3f79a4d3	0.97517127
66	0x3f798d4e	0.9748124
67	0x3f793db0	0.9735975
68	0x3f7a3a87	0.97745556
69	0x3f78f445	0.97247726
70	0x3f79d13a	0.9758488
71	0x3f79ee4f	0.97629255
72	0x3f79d169	0.9758516
73	0x3f7a72a7	0.97831196
74	0x3f7a0390	0.97661686
75	0x3f7a3a91	0.97745615
76	0x3f79260f	0.973237
77	0x3f79f1e2	0.9763471
78	0x3f7961c4	0.97414804
79	0x3f79e550	0.9761553
