UADNet-main/weight/weights_hydice.pt (torch, 761143 bytes, 28 tensors)

Encoder.0.weight f4 [96, 162, 3, 3]
-0.012085593 0.097147495 -0.007167747 -0.034820512 0.0059867133 -0.014575792 -0.05681197 0.08333217
-0.0025268372 -0.10352489 -0.0147231 0.023930456 -0.055020824 -0.009048006 -0.037835058 -0.060386103
-0.021859642 -0.0006472908 -0.059809495 -0.031820007 -0.032535534 -0.02710373 -0.05208667 -0.020726893
0.0027789006 0.044391617 0.09666372 0.05552344 0.013692932 0.004853577 -0.060596086 0.04445406
0.016974214 -0.0027556662 -0.0034793331 -0.1033539 0.012476737 -0.009807085 0.022743782 0.06667932
-0.0010431847 0.029804312 -0.00040724492 -0.008003144 0.083073765 -0.011671187 0.027042473 0.040654726
-0.043828104 -0.00905552 0.009509594 0.027668506 -0.04317472 -0.012068952 -0.037680447 -0.018414116
-0.01212673 -0.029165668 -0.038903475 -0.0045409007 0.017985227 -0.03509232 0.011792606 -0.05138962
-0.053157724 -0.057212926 0.0047462 -0.009393485 -0.07487437 0.059503883 -0.017510286 -0.04831849
-0.052653186 -0.04129256 0.051078103 0.029677806 0.0017370154 -0.01614265 -0.018428206 0.053224374
-0.017743146 -0.05162992 0.014789942 -0.021342903 -0.041532412 0.0104395 0.06382565 0.059105612
-0.068568006 0.042291984 0.040904954 -0.038034927 -0.063327596 -0.021057745 -0.052560445 -0.032436498
0.010597047 -0.023823364 0.015793674 -0.036604974 0.062702775 0.062245 0.025042554 -0.054340776
-0.01016449 -0.012081782 0.0031684919 0.0076224213 0.042495828 0.03243172 -0.046459753 0.031613637
0.036772005 0.050485946 0.045630943 -0.04760785 0.023311427 0.06510696 -0.01805364 0.0034610583
0.037931394 0.015985647 -0.027305333 -0.04969312 -0.019169504 0.0150588015 0.026699828 -0.038834386
-0.03207624 0.013938977 0.020914583 0.024785621 0.0038880662 0.0058490266 -0.023882464 0.0061182356
-0.034221496 0.028115967 0.049223054 -0.020200226 -0.052596457 0.030421771 0.00016719986 -0.051376045
-0.010136115 -0.033792417 -0.015739929 0.03785767 0.012622009 -0.02847687 0.003906502 -0.07995435
-0.03527044 -0.053932946 0.0069932635 0.023092123 -0.032181915 0.014510385 0.041155174 -0.075564936
-0.02859979 0.00088046654 0.008315547 -0.02486558 -0.008093502 -1.9639081e-05 0.01057934 -0.021820256
-0.007023621 -0.030512875 -0.0013680933 0.065450534 -0.010930632 0.0502145 -0.027014598 0.00075937295
-0.00256102 -0.0014354793 -0.014970856 -0.017519431 0.04281898 0.0042574676 0.010069034 -0.070961244
0.015194366 -0.0643768 -0.0021600674 0.038892347 -0.037022322 -0.021229059 -0.020510552 -0.00065919285
-0.037715252 -0.04059187 0.013280909 -0.031622555 -0.035514083 -0.02443682 -0.04459474 -0.0542115
0.05436338 -0.009766158 -0.01451217 -0.05178702 -0.004237418 -0.033512272 0.025179086 0.067046545
-0.0033166863 0.016812406 -0.007976061 -0.007160328 -0.07349481 -0.0036533123 0.041712638 0.037351407
0.052855633 -0.0047820415 -0.02364713 -0.05009424 0.010502741 -0.049922165 -0.009056867 0.023325521
0.00076938624 0.0060504167 0.036757138 -0.009772436 -0.005714213 -0.016292492 -0.012575901 0.053463377
-0.023808824 -0.018536367 -0.013137865 -0.048092768 -0.016803686 -0.058558125 -0.06564096 -0.038532402
0.030743685 -0.056937076 0.05425582 -0.062104896 -0.033362385 -0.039395094 -0.001140641 -0.03822776
0.030469699 0.014963421 -0.015538653 -0.04098282 -0.02187454 0.002888501 0.06136483 0.059044592
00000000: a702 46bc 44f5 c63d 6bdf eabb f49f 0ebd
00000010: 312c c43b 4dcf 6ebc abb3 68bd 0faa aa3d
00000020: 4b99 25bb dc04 d4bd 2839 71bc ce09 c43c
00000030: 845d 61bd 163e 14bc eff8 1abd 6b57 77bd
00000040: fe12 b3bc f3ae 29ba cdfa 74bd b255 02bd
00000050: fb43 05bd a408 debc d558 55bd 72cb a9bc
00000060: 371e 363b fcd3 353d a1f7 c53d 8c6c 633d
00000070: 5258 603c c10a 9f3b 9a33 78bd 7615 363d
00000080: 820d 8b3c 6898 34bb 8605 64bb 36ab d3bd
00000090: 3a6b 4c3c e5ad 20bc 2b51 ba3c 2b8f 883d
000000a0: 78bb 88ba 2c28 f43c 7d83 d5b9 9e1f 03bc
000000b0: 9422 aa3d 8238 3fbc 2d88 dd3c 9285 263d
000000c0: 1985 33bd 9b5d 14bc 21ce 1b3c 10a9 e23c
000000d0: fad7 30bd dbbc 45bc d056 1abd 33d9 96bc
000000e0: 31af 46bc d7ec eebc 4059 1fbd d6cb 94bb
000000f0: c155 933c f7bc 0fbd c635 413c ec7d 52bd
00000100: eabb 59bd 1a58 6abd 0386 9b3b 22e7 19bc
00000110: bc57 99bd 58ba 733d bb71 8fbc 9ce9 45bd
00000120: deaa 57bd 6322 29bd 4637 513d df1e f33c
00000130: 91ac e33a 973d 84bc c0f6 96bc cd01 5a3d
00000140: 135a 91bc e579 53bd 8351 723c 50d7 aebc
00000150: e41d 2abd 700a 2b3c 06b7 823d ba18 723d
00000160: 626d 8cbd 5c3a 2d3d f48b 273d 83ca 1bbd
00000170: e6b1 81bd 4b81 acbc 9f49 57bd 22dc 04bd
00000180: 3d9f 2d3c 3729 c3bc bc61 813c 19ef 15bd
00000190: 506a 803d 9df4 7e3d 0b26 cd3c 6f94 5ebd
000001a0: f688 26bc abf2 45bc 79a6 4f3b 81c5 f93b
000001b0: 1b10 2e3d 20d7 043d 954c 3ebd 4d7d 013d
000001c0: 3e9e 163d 5aca 4e3d 83e7 3a3d 7300 43bd
000001d0: 9bf7 be3c cc56 853d 3ae5 93bc ecd2 623b
000001e0: f35d 1b3d 55f4 823c 6faf dfbc 038b 4bbd
000001f0: 5d09 9dbc 31b9 763c 99b9 da3c ce10 1fbd
00000200: 6062 03bd 4f60 643c 0f55 ab3c 370b cb3c
00000210: edce 7e3b 31a9 bf3b 28a5 c3bc 7b7b c83b
00000220: d72b 0cbd 7553 e63c 1d9e 493d f27a a5bc
00000230: 626f 57bd 1437 f93c 5f52 2f39 b06f 52bd
00000240: f311 26bc eb69 0abd 06f1 80bc a510 1b3d
00000250: 8bcc 4e3c 5348 e9bc 1d02 803b 1bbf a3bd
00000260: bd77 10bd cbe8 5cbd bf27 e53b b12b bd3c
00000270: 2fd1 03bd f7bc 6d3c 5492 283d cac1 9abd
00000280: 1b4a eabc 1ccf 663a ef3d 083c e7b2 cbbc
00000290: 9c9a 04bc 9bbe a4b7 f854 2d3c 65c0 b2bc
000002a0: 6726 e6bb 23f6 f9bc 9851 b3ba ee0a 863d
000002b0: 6516 33bc b8ad 4d3d b84d ddbc a810 473a
000002c0: c9d6 27bb b126 bcba 5248 75bc e984 8fbc
000002d0: f462 2f3d 3a82 8b3b 97f8 243c 2154 91bd
000002e0: caf1 783c fcd7 83bd eb8f 0dbb 954d 1f3d
000002f0: b8a4 17bd 90e8 adbc bf05 a8bc afcd 2cba
00000300: 4f7b 1abd a943 26bd 2b98 593c a786 01bd
00000310: 3777 11bd ba2f c8bc f9a8 36bd e10c 5ebd
00000320: 23ac 5e3d 3c02 20bc 74c4 6dbc a01e 54bd
00000330: 0ada 8abb 2a44 09bd 5f44 ce3c b34f 893d
00000340: c35c 59bb 2cba 893c 06ae 02bc 2fa1 eabb
00000350: 7284 96bd 696c 6fbb dfda 2a3d cafd 183d
00000360: 267f 583d acb2 9cbb a0b7 c1bc 9e2f 4dbd
00000370: b013 2c3c 2f7b 4cbd 4163 14bc 2a15 bf3c
00000380: a3b0 493a 9342 c63b a78e 163d 911c 20bc
00000390: 4b3e bbbb d577 85bc 270b 4ebc 6afc 5a3d
000003a0: b90a c3bc 94d9 97bc 3340 57bc ecfc 44bd
000003b0: e2a7 89bc a5da 6fbd c56e 86bd 27d4 1dbd
000003c0: 2eda fb3c da36 69bd 5a3b 5e3d b461 7ebd
000003d0: ffa6 08bd c05c 21bd 9081 95ba b694 1cbd
000003e0: 979b f93c 2329 753c d695 7ebc 9add 27bd
000003f0: 3c32 b3bc 014d 3d3b b059 7b3d bed8 713d

Encoder.0.bias f4 [96]
-0.011928017 -0.031932246 -2.4844113e-07 0.01979118 -0.022698283 -0.018577993 -0.026399132 0.0029622708
0.011062609 -0.0053387308 -0.0076708896 -0.008263503 -0.020959223 -0.020158652 0.005400612 -0.003847296
-0.026407346 0.02486499 0.016996037 0.023822429 0.0012289232 -0.010725776 -0.0043574832 -0.015521738
-0.021499671 0.02343708 0.0031273887 0.016575417 -0.0085276095 0.021430548 -0.028048612 0.004698531
-0.020458829 -0.0054306868 0.00089558255 0.008673096 0.013210612 -0.019912098 0.028814055 -0.0068826484
-0.023183318 0.014121928 0.019602116 -0.012272228 -6.707193e-08 0.019886242 -0.0037348268 0.033256657
0.007416757 -0.011838156 0.0141341565 0.007487979 -0.021546207 0.004405323 -0.0056050825 0.015942218
-0.011936204 -0.0086064255 -0.02175057 0.0011946377 -0.018867753 0.014134015 0.005369944 -0.019982
0.00051005336 -0.011658114 -0.018304776 -0.021252485 -0.019899221 -0.017205661 -0.001593426 0.022100793
-0.009242916 0.00012245927 -0.015929107 0.015282872 -0.012948459 -0.020422885 0.016633362 -0.027043756
0.01013455 -0.0048523596 -0.012593344 -0.0059900223 0.00010958621 0.0002657805 0.023657538 0.026511967
-0.0045595155 0.018937474 0.004307003 0.016655786 -0.011184101 -0.005221792 -0.021062031 -0.026508924
00000000: bb6d 43bc 63cb 02bd 7d61 85b4 1d21 a23c
00000010: c0f1 b9bc e030 98bc fe42 d8bc a822 423b
00000020: f23f 353c 85f0 aebb 165c fbbb a563 07bc
00000030: adb2 abbc c223 a5bc 9ef7 b03b ea22 7cbb
00000040: 3854 d8bc aab1 cb3c 463b 8b3c 4127 c33c
00000050: d213 a13a 2abb 2fbc 38c9 8ebb e34e 7ebc
00000060: 1420 b0bc 1fff bf3c e0f4 4c3b 2bc9 873c
00000070: 63b7 0bbc 1e8f af3c 34c6 e5bc 22f6 993b
00000080: 4699 a7bc e7f3 b1bb 87c5 6a3a 9a19 0e3c
00000090: 5371 583c b21e a3bc 740b ec3c d787 e1bb
000000a0: f1ea bdbc a95f 673c 9e94 a03c 7411 49bc
000000b0: 2f09 90b3 79e8 a23c ffc3 74bb 2238 083d
000000c0: 4408 f33b d3f4 41bc f392 673c b85d f53b
000000d0: ac81 b0bc 875a 903b d7aa b7bb 4199 823c
000000e0: 1190 43bc f701 0dbc 402e b2bc 6495 9c3a
000000f0: 8c90 9abc 5b92 673c 5bf6 af3b 4bb1 a3bc
00000100: 1ab5 053a ad01 3fbc e6f3 95bc b119 aebc
00000110: b103 a3bc e3f2 8cbc 81da d0ba b90c b53c
00000120: 996f 17bc 6968 0039 c27d 82bc 0365 7a3c
00000130: c625 54bc e54d a7bc b042 883c de8a ddbc
00000140: 620b 263c 8b00 9fbb 5054 4ebc f347 c4bb
00000150: a6d1 e538 7458 8b39 74cd c13c a02f d93c
00000160: fd67 95bb c322 9b3c c321 8d3b b771 883c
00000170: 853d 37bc 911b abbb 488a acbc 3e29 d9bc

Encoder.2.weight f4 [96]
0.98823583 0.99925244 0.99130124 0.9959543 1.0030069 0.9966041 0.99731064 0.9909424
0.9955687 0.99591184 0.9945099 1.0011537 0.9942288 0.99365157 1.0019436 0.99219835
0.995706 1.0033884 0.99088365 1.0065222 0.99630195 0.99386436 0.99506074 1.00177
0.99549204 0.99647456 0.9956413 0.99980205 1.0024791 0.9883455 0.99173063 1.004764
0.9888456 0.99832124 0.99230033 0.9866714 0.9977007 0.9911354 0.98663604 0.9968224
0.98928916 1.0005738 0.9942181 0.9932474 0.99708 0.9916761 0.9935027 0.99699324
0.99449694 0.99012333 1.0064862 0.9926396 0.99110204 0.9980573 0.997434 0.99446195
1.0008262 0.9929421 0.99672794 0.9996372 0.9970317 0.9967296 1.0055598 1.001296
1.0020771 0.9930858 0.993213 0.9881213 0.9887 0.9939765 0.9943662 0.9971777
0.99943554 0.99252576 0.99270076 0.9933959 0.99397904 0.99198645 1.0008651 0.9931083
0.9911831 0.99779546 1.0030307 0.9935772 0.9991218 1.0055659 0.9992658 1.0001163
0.99874806 0.9952801 0.9931048 0.9958954 0.9882456 1.005662 0.99859905 0.9900775
00000000: 06fd 7c3f 02cf 7f3f ebc5 7d3f dcf6 7e3f
00000010: 8862 803f 7221 7f3f c04f 7f3f 67ae 7d3f
00000020: 97dd 7e3f 14f4 7e3f 3398 7e3f ce25 803f
00000030: c785 7e3f f35f 7e3f b03f 803f b600 7e3f
00000040: 97e6 7e3f 086f 803f 8daa 7d3f b8d5 803f
00000050: a50d 7f3f e56d 7e3f 4dbc 7e3f 003a 803f
00000060: 91d8 7e3f f518 7f3f 59e2 7e3f 07f3 7f3f
00000070: 3c51 803f 3604 7d3f 0fe2 7d3f 1b9c 803f
00000080: fc24 7d3f fb91 7f3f 6507 7e3f 7f96 7c3f
00000090: 5069 7f3f 0dbb 7d3f 2e94 7c3f c12f 7f3f
000000a0: 0e42 7d3f cd12 803f 1485 7e3f 7645 7e3f
000000b0: a340 7f3f 7cde 7d3f 3156 7e3f f33a 7f3f
000000c0: 5a97 7e3f b978 7d3f 8ad4 803f a11d 7e3f
000000d0: ddb8 7d3f af80 7f3f d657 7f3f 0f95 7e3f
000000e0: 131b 803f 7431 7e3f 9029 7f3f 39e8 7f3f
000000f0: 783d 7f3f ac29 7f3f 2fb6 803f 782a 803f
00000100: 1044 803f df3a 7e3f 3543 7e3f 84f5 7c3f
00000110: 711b 7d3f 3e75 7e3f c98e 7e3f 0a47 7f3f
00000120: 02db 7f3f 2b16 7e3f a321 7e3f 324f 7e3f
00000130: 6975 7e3f d3f2 7d3f 591c 803f 583c 7e3f
00000140: 2dbe 7d3f 866f 7f3f 4f63 803f 135b 7e3f
00000150: 72c6 7f3f 62b6 803f e2cf 7f3f d003 803f
00000160: f4ad 7f3f adca 7e3f 1e3c 7e3f 00f3 7e3f
00000170: aafd 7c3f 88b9 803f 30a4 7f3f b875 7d3f

Encoder.2.bias f4 [96]
0.011578159 -0.0021701064 0.0040873224 -0.0077646337 0.0029339527 -0.0035198242 0.003935447 0.008603893
-0.0021385944 -0.0044223983 0.0053792004 -0.0052959137 0.0060120295 -0.004138788 -0.013356022 -0.012529048
0.009937058 0.008853869 0.0042526587 -0.008073783 -0.012436578 0.0076233675 0.0070903185 -0.0060926513
0.0060564494 0.0012433405 -0.00049588445 -0.0043472815 0.007802104 0.0056161373 0.004728526 0.00387509
0.009723124 -0.003940339 0.002282738 -0.0009315148 -0.010104857 0.0067927525 0.0004660728 0.0023575558
0.005306858 0.005445506 0.00070716423 -0.012893661 -0.011666499 -0.0027835919 0.007328231 0.0063121067
-0.0043369727 0.006235669 0.010100822 0.011961899 0.0007818626 0.011569674 -0.0091247475 -0.011524898
-0.0019685999 0.0034904345 -0.0089022815 -0.00090821483 -0.00629189 -0.016096173 0.007240088 0.00370484
0.004537449 -0.0058359895 0.0034071535 0.014533803 -0.0036944118 0.0057876934 -0.014357053 -0.005116558
0.0024537686 -0.004558789 0.0046870434 0.011779526 -0.010405964 -0.012692649 -0.0056945477 -0.011452103
-0.0044466564 -0.0031280054 -0.006006373 -0.003997641 -0.0019269914 -0.0029416517 -0.007848949 0.0028849526
0.008460019 0.0055864532 0.0056143175 -0.012624377 -0.0049989996 -0.009800576 -0.0024941273 0.002316682
00000000: 52b2 3d3c 5838 0ebb f2ee 853b 786e febb
00000010: 8f47 403b daac 66bb ecf4 803b 58f7 0c3c
00000020: a927 0cbb c4e9 90bb 0144 b03b 5889 adbb
00000030: 8f00 c53b ac9e 87bb 37d3 5abc a346 4dbc
00000040: 0bcf 223c d10f 113c e359 8b3b e647 04bc
00000050: cac2 4bbc 71cd f93b e755 e83b dda4 c7bb
00000060: 2e75 c63b 96f7 a23a 3efe 01ba a473 8ebb
00000070: cba8 ff3b 9307 b83b c0f1 9a3b 39f5 7d3b
00000080: bd4d 1f3c f61d 81bb fd99 153b e630 74ba
00000090: d88e 25bc bd95 de3b 3b5b f439 3981 1a3b
000000a0: 27e5 ad3b 3770 b23b fd60 393a ef3f 53bc
000000b0: d824 3fbc ec6c 36bb a821 f03b cad5 ce3b
000000c0: 2a1d 8ebb 9554 cc3b eb7d 253c d7fb 433c
000000d0: e9f5 4c3a bb8e 3d3c f77f 15bc edd2 3cbc
000000e0: a003 01bb c6bf 643b e0da 11bc 4415 6eba
000000f0: 332c cebb 1fdc 83bc 433e ed3b e7cc 723b
00000100: e2ae 943b d43b bfbb 8d4a 5f3b 301f 6e3c
00000110: f21d 72bb b1a6 bd3b d839 6bbc cda8 a7bb
00000120: 68cf 203b e561 95bb c595 993b eafe 403c
00000130: c77d 2abc d4f4 4fbc 5499 babb 9aa1 3bbc
00000140: 42b5 91bb 39ff 4cbb 1cd1 c4bb a5fe 82bb
00000150: 1a93 fcba bac8 40bb e198 00bc 7911 3d3b
00000160: e49b 0a3c 910e b73b 4ff8 b73b 7ad6 4ebc
00000170: a6ce a3bb 9892 20bc 8374 23bb 79d3 173b

Encoder.2.running_mean f4 [96]
0.25593105 -0.040850114 0.72595596 0.38390005 -0.03029217 -0.091798335 -0.12537561 0.38022494
-0.06826559 0.35692215 0.116707906 -0.049857207 -0.19358836 0.5910798 -0.05632907 -0.14248025
-0.11825552 0.010098745 0.8249712 -0.032350633 0.3136109 1.0020252 0.1091392 0.044511646
0.2268695 0.17092313 0.03233077 0.061889425 0.3863287 0.38389063 -0.0050496073 -0.049978264
1.1809991e-05 0.1248592 1.0788616 -0.052750077 0.10623111 0.79254955 0.45881668 -0.120971896
-0.16555001 -0.012234788 -0.121376924 -0.08956829 -0.15995264 0.7569309 0.98915577 0.2784952
0.6704966 0.69125026 -0.0127905505 0.5290914 -0.14054544 -0.032047357 -0.056777433 0.46280712
-0.053916547 -0.06353248 -0.012273876 -0.15383913 0.005637405 0.14695741 -0.02150124 -0.007878375
0.20434856 0.06989847 0.5755726 0.35084483 -0.11718082 0.17824124 -0.032425974 -0.053844173
-0.15763943 -0.16227792 0.18714257 -0.029789431 0.07580492 -0.11825537 0.3270221 -0.14734398
0.008336903 0.09723974 -0.008842121 0.46604767 -0.12257994 -0.03735982 0.23486179 0.068477154
-0.057279445 -0.0400162 -0.1737849 -0.1090782 0.28029022 -0.017447958 0.26485485 -0.052904736
00000000: 6509 833e 7352 27bd 40d8 393f 8c8e c43e
00000010: 4927 f8bc c400 bcbd 7762 00be d8ac c23e
00000020: d4ce 8bbd 80be b63e 8e04 ef3d 1237 4cbd
00000030: 073c 46be 0151 173f 50b9 66bd 58e6 11be
00000040: f32f f2bd 3575 253c 5031 533f 1982 04bd
00000050: 9c91 a03e 5d42 803f 5f84 df3d d851 363d
00000060: 7a50 683e 7906 2f3e 456d 043d c47f 7d3d
00000070: e0cc c53e 508d c43e 2d77 a5bb 02b6 4cbd
00000080: 8623 4637 2eb6 ff3d 2318 8a3f 7710 58bd
00000090: b28f d93d 87e4 4a3f 05ea ea3e 1dc0 f7bd
000000a0: f185 29be 6c74 48bc 7794 f8bd 946f b7bd
000000b0: a0ca 23be 39c6 413f 5039 7d3f ec96 8e3e
000000c0: aaa5 2b3f c7f5 303f 758f 51bc 8972 073f
000000d0: 25eb 0fbe 1744 03bd 748f 68bd 0ef5 ec3e
000000e0: 99d7 5cbd 511d 82bd 5e18 49bc 0188 1dbe
000000f0: fbb9 b83b 017c 163e 5e23 b0bc 4d14 01bc
00000100: c040 513e ee26 8f3d ba58 133f efa1 b33e
00000110: 7ffc efbd df84 363e 19d1 04bd b58b 5cbd
00000120: 3b6c 21be 2f2c 26be 4da2 3f3e f708 f4bc
00000130: 9c3f 9b3d df2f f2bd 716f a73e 57e1 16be
00000140: 8197 083c a125 c73d 8bde 10bc cd9d ee3e
00000150: 310b fbbd 9c06 19bd 9c7f 703e c03d 8c3d
00000160: da9d 6abd 07e8 23bd abf4 31be 6464 dfbd
00000170: 3382 8f3e 05ef 8ebc 0e9b 873e a3b2 58bd

Encoder.2.running_var f4 [96]
0.040682215 0.00056934246 0.07073208 0.023345847 0.0002751953 0.0015585284 0.0030690737 0.035569187
0.0026161508 0.0320658 0.006992867 0.004058558 0.0047211978 0.058843814 0.004395708 0.0027040034
0.0020945605 0.0020904585 0.08247151 0.0018891855 0.01353255 0.12552118 0.011028713 0.0042496114
0.009957577 0.006271456 0.0016266117 0.003019741 0.030843522 0.030588262 0.0057326704 0.0049928976
0.0013419006 0.006114982 0.16430257 0.0020916432 0.021725895 0.105698876 0.060685404 0.002239107
0.0031266233 0.0019569227 0.0024174885 0.0015225346 0.0030739857 0.091029435 0.113742046 0.018020937
0.07589501 0.105996765 0.0011700814 0.062454257 0.0029822832 0.00044814497 0.008358141 0.04820685
0.010738684 0.00089772494 0.0045691826 0.0035565824 0.0044881306 0.010030896 0.0015505592 0.0010363214
0.01087696 0.017187681 0.045246594 0.026062585 0.002551398 0.008694341 0.013108805 0.00073666143
0.005480176 0.003811619 0.016492737 0.0005043512 0.016262554 0.0019145093 0.019132534 0.003045474
0.0072601456 0.007438035 0.008886476 0.03942003 0.0026685547 0.002433207 0.010930905 0.0013358484
0.0017842624 0.001871094 0.0045439242 0.0021379038 0.012839927 0.001363595 0.032529898 0.00067186775
00000000: 65a2 263d ed3f 153a fbdb 903d ca3f bf3c
00000010: 1748 9039 8947 cc3a 8322 493b ffb0 113d
00000020: ba73 2b3b 6e57 033d 6c24 e53b a7fd 843b
00000030: 47b4 9a3b 3606 713d df09 903b a635 313b
00000040: e544 093b 1300 093b d3e6 a83d 8c9e f73a
00000050: a1b7 5d3c a088 003e c6b1 343c 5340 8b3b
00000060: 1b25 233c c980 cd3b 0834 d53a d9e6 453b
00000070: 8eab fc3c 3c94 fa3c 20d9 bb3b 769b a33b
00000080: b6e2 af3a 3060 c83b ef3e 283e f313 093b
00000090: 81fa b13c a778 d83d 4291 783d fbbd 123b
000000a0: 09e8 4c3b b73f 003b ba6e 1e3b c98f c73a
000000b0: ec74 493b a46d ba3d 97f1 e83d a5a0 933c
000000c0: d86e 9b3d d514 d93d 6b5d 993a 09d0 7f3d
000000d0: 6972 433b 00f5 ea39 96f0 083c 8c74 453d
000000e0: 4ef1 2f3c 4d55 6b3a 15b9 953b 8d15 693b
000000f0: 2b11 933b a158 243c 223c cb3a 2dd5 873a
00000100: 4735 323c 2ecd 8c3c 7e54 393d 3481 d53c
00000110: 5b35 273b b672 0e3c 50c6 563c 831c 413a
00000120: 0c93 b33b 5bcc 793b c71b 873c 7036 043a
00000130: 0c39 853c 46f0 fa3a d5bb 9c3c 9396 473b
00000140: 84e6 ed3b c3ba f33b 9598 113c e676 213d
00000150: ebe2 2e3b 7076 1f3b 8a17 333c a217 af3a
00000160: e9dd e93a 7f3f f53a 33e5 943b 131c 0c3b
00000170: 8f5e 523c a8ba b23a 123e 053d 4820 303a

Encoder.4.weight f4 [48, 96, 3, 3]
-0.03421693 -0.031753115 -0.03078862 -0.07224787 0.020896351 -0.024483563 -0.043645453 -0.04927202
-0.0022831098 -0.026008762 0.013972667 0.056134295 0.06976403 -0.0001160327 -0.06479486 0.049768846
-0.035487767 0.07559273 -0.029062038 -0.02718101 0.057056863 -0.01826472 -0.0012093269 -0.004373934
0.047250062 -0.030227555 0.0068018404 0.026727417 0.010142999 0.010082084 0.019292416 -0.019891655
-0.02103822 0.009905534 0.029101718 -0.051904038 0.0022545054 0.024824753 0.030895665 -0.07796647
0.059064254 0.11583265 -0.003716317 -0.07537238 0.05322106 -0.028516814 0.045081474 -0.05461747
-0.07426179 0.0316112 -0.09493311 -0.020680502 0.044319637 0.00062109355 0.05685516 0.0013157461
-0.09735452 -0.06305208 0.043151673 0.042997107 0.031573743 -0.03600455 0.078027405 -0.011053814
0.007820384 -0.00587832 -0.06790584 -0.004267681 -0.078674056 -0.0061321324 -0.045469433 0.025771122
0.05462184 -0.022567745 0.0054677473 0.02313565 -0.063768305 -0.017269617 0.012466755 0.03622076
0.079607226 -0.014485562 0.0075037545 0.035113182 -0.0072668907 -0.014914394 -0.016138589 -0.0062753395
-0.009759009 0.046120733 0.026798187 -0.038690582 -0.009001942 0.056697294 -0.041402098 -0.028276427
0.027176805 -0.038808517 0.00627646 -0.10413852 0.0015368983 -0.036589403 -0.01726683 -0.044279978
0.095951356 -0.038061555 0.029031621 -0.05569572 0.027752737 0.023107607 -0.052048072 0.051685635
-0.007871363 -0.0068651414 0.055143457 0.100035205 -0.06300549 0.10521897 0.030445997 -0.015814355
-0.011778769 -0.038782693 -0.037904788 -0.014403849 -0.036918376 0.0386749 -0.06999926 0.054322053
-0.07334469 0.054336667 -0.018932814 -0.044539504 -0.060439784 -0.015394205 0.11165938 0.018012162
0.028494269 0.018027367 -0.040595036 0.025473306 0.011215873 0.068002805 0.08707882 0.037634425
-0.056523602 -0.016442062 0.0037724006 0.041722085 0.027032122 -0.06815668 0.0025607115 -0.047708057
0.009899997 0.011403279 -0.008168782 0.015414377 0.03694945 -0.030513385 0.043587588 -0.09717822
0.03353053 -0.05624759 -0.006939724 0.047296535 0.015216367 0.017244136 -0.064886056 0.041939616
0.06408113 0.0677652 -0.058150973 0.0014293576 0.028808432 0.0048366846 0.04240276 -0.04372177
0.05039864 0.037828885 0.0054995716 0.06269 -0.048268244 0.017301876 0.020585882 0.045553774
0.06274755 -0.074073665 0.016461862 -0.0004679019 0.08169076 -0.077644765 -0.0803947 0.024480952
-0.02006757 0.0035380234 0.010272132 -0.0032497607 0.009250978 -0.0022811287 0.038537517 -0.07293004
0.005322622 -0.03233869 0.011228563 0.10605468 -0.042017117 0.018213069 -0.00043289698 -0.06499849
-0.024031734 -0.0068554953 -0.059901398 -0.002804173 -0.0013618958 0.19028962 0.061792444 0.007251253
-0.046095707 0.015870113 -0.075446375 -0.033469334 0.004316756 0.046197563 0.013779604 0.01985479
-0.003641159 0.0001457254 0.019766346 -0.021550616 -0.07264824 -0.062983215 -0.06183302 0.016752496
-0.034503937 0.0064399126 -0.028615644 -0.026681699 0.0408959 -0.04479619 -0.02149495 -0.045786
0.071181975 0.0053307386 -0.0023473143 -0.08760167 -0.017391765 0.021246267 -0.047874518 -0.12646532
-0.020100527 -0.008123852 0.14115185 -0.035270132 0.024968818 -0.05494449 0.10222875 0.0024151066
00000000: 0d27 0cbd 8e0f 02bd 6a38 fcbc b1f6 93bd
00000010: d32e ab3c c191 c8bc 93c5 32bd 75d1 49bd
00000020: 3aa0 15bb 5410 d5bc 9ded 643c 13ed 653d
00000030: 72e0 8e3d 9556 f3b8 2bb3 84bd 6bda 4b3d
00000040: 9f5b 11bd 5cd0 9a3d 8313 eebc b6aa debc
00000050: 75b4 693d e59f 95bc 4782 9eba 3853 8fbb
00000060: 4889 413d c79f f7bc f9e1 de3b 75f3 da3c
00000070: d22e 263c 532f 253c 210b 9e3c d3f3 a2bc
00000080: 5858 acbc d24a 223c ba66 ee3c 5499 54bd
00000090: 53c0 133b 485d cb3c e818 fd3c e2ac 9fbd
000000a0: 5ced 713d ab39 ed3d 748d 73bb d65c 9abd
000000b0: 54fe 593d 189c e9bc 5aa7 383d 91b6 5fbd
000000c0: 9116 98bd bf7a 013d 4a6c c2bd 286a a9bc
000000d0: 8288 353d e2d0 223a f5e0 683d 1d75 ac3a
000000e0: ce61 c7bd 7321 81bd cfbf 303d bc1d 303d
000000f0: 7853 013d 8279 13bd d5cc 9f3d 0e1b 35bc
00000100: 1121 003c ec9e c0bb 3812 8bbd e7d7 8bbb
00000110: dd1f a1bd 0ef0 c8bb 283e 3abd f61d d33c
00000120: 27bb 5f3d fedf b8bc ca2a b33b fa86 bd3c
00000130: f598 82bd 0379 8dbc 5c41 4c3c 385c 143d
00000140: 1d09 a33d da54 6dbc 0ee2 f53b d7d2 0f3d
00000150: 191f eebb 815b 74bc 1335 84bc 5da1 cdbb
00000160: 40e4 1fbc 18e9 3c3d df87 db3c 047a 1ebd
00000170: e27c 13bc 6c3b 683d 3f95 29bd f7a3 e7bc
00000180: e4a1 de3c aef5 1ebd c3aa cd3b 9446 d5bd
00000190: c071 c93a c5de 15bd 2b73 8dbc ec5e 35bd
000001a0: 2582 c43d 6fe6 1bbd b9d3 ed3c 3221 64bd
000001b0: b559 e33c 2a4c bd3c 5c30 55bd 51b4 533d
000001c0: e4f6 00bc fbf4 e0bb 1bde 613d 42df cc3d
000001d0: 0609 81bd 0b7d d73d e269 f93c 1b8d 81bc
000001e0: bdfb 40bc 9ada 1ebd 0d42 1bbd 1ffe 6bbc
000001f0: b937 17bd 9269 1e3d c65b 8fbd cd80 5e3d
00000200: be35 96bd 2090 5e3d fd18 9bbc 0e6f 36bd
00000210: b58f 77bd fa37 7cbc acad e43d 3e8e 933c
00000220: d06c e93c 21ae 933c fb46 26bd 65ad d03c
00000230: c8c2 373c 0e45 8b3d 6156 b23d 8e26 1a3d
00000240: 4b85 67bd 81b1 86bc 613a 773b c7e4 2a3d
00000250: 7872 dd3c bb95 8bbd 9cd1 273b 8669 43bd
00000260: 9933 223c d2d4 3a3c 5bd6 05bc 958c 7c3c
00000270: 4e58 173d 35f7 f9bc e688 323d 6005 c7bd
00000280: 4f57 093d df63 66bd a066 e3bb 03ba 413d
00000290: 124e 793c 9343 8d3c fbe2 84bd e0c8 2b3d
000002a0: f83c 833d 7bc8 8a3d b72f 6ebd 4859 bb3a
000002b0: a9ff eb3c 0d7d 9e3b 84ae 2d3d 9915 33bd
000002c0: ce6e 4e3d 76f2 1a3d c035 b43b 9d63 803d
000002d0: ecb4 45bd aabc 8d3c b9a3 a83c 9896 3a3d
000002e0: ca81 803d efb3 97bd 07db 863c bb50 f5b9
000002f0: 7c4d a73d 3804 9fbd faa5 a4bd 478c c83c
00000300: bf64 a4bc 2fde 673b 724c 283c f0f9 54bb
00000310: 6a91 173c fd7e 15bb 84d9 1d3d 585c 95bd
00000320: 6469 ae3b 9375 04bd 02f8 373c 3233 d93d
00000330: 241a 2cbd 9333 953c 73f6 e2b9 ee1d 85bd
00000340: 33de c4bc 10a4 e0bb 2b5b 75bd 37c6 37bb
00000350: a481 b2ba 48db 423e 131a 7d3d eb9b ed3b
00000360: dace 3cbd 0a02 823c a183 9abd 2417 09bd
00000370: 9373 8d3b a839 3d3d d9c3 613c 83a6 a23c
00000380: 83a0 6ebb ddcd 1839 08ed a13c eb8a b0bc
00000390: 9ac8 94bd 58fd 80bd 9f44 7dbd 883c 893c
000003a0: 0054 0dbd e705 d33b 5b6b eabc 9493 dabc
000003b0: 7682 273d 367c 37bd 2d16 b0bc 1a8a 3bbd
000003c0: dbc7 913d 7aad ae3b 66d5 19bb 8168 b3bd
000003d0: 2d79 8ebc a70c ae3c 1218 44bd 2080 01be
000003e0: dca9 a4bc e819 05bc 1c8a 103e 6a77 10bd
000003f0: 688b cc3c 790d 61bd 4f5d d13d c446 1e3b

Encoder.4.bias f4 [48]
-0.022845076 0.033786763 -0.015615437 -0.025328394 -0.017570546 0.015240181 -0.045504685 -0.02344266
0.0052868044 0.01575105 0.011759771 0.008826454 -0.0029797696 -0.02775299 0.020072147 0.010991996
0.005822265 0.018358106 -0.020837454 0.0081611145 -0.026274746 0.0003872829 -0.009301207 -0.008391021
0.0206756 -0.008698952 -0.04269976 0.036892705 0.01923203 -0.013106227 0.018788911 -0.0073482897
0.015962223 -0.007396479 0.0031282431 -0.0281122 -0.01722596 -0.0053708786 -0.019716438 0.012534822
0.007857235 -0.0106978845 -0.011651751 -0.004994825 0.00011198819 -0.04750414 0.008315075 -0.021626448
00000000: 9925 bbbc fd63 0a3d e4d7 7fbc 7e7d cfbc
00000010: 1bf0 8fbc f4b1 793c 1f63 3abd d20a c0bc
00000020: ee3c ad3b 5908 813c 0eac 403c d59c 103c
00000030: 3d48 43bb 3d5a e3bc 586e a43c c617 343c
00000040: b3c8 be3b bd63 963c 4fb3 aabc 32b6 053c
00000050: 233e d7bc 3b0c cb39 1764 18bc 7e7a 09bc
00000060: e05f a93c 0d86 0ebc f2e5 2ebd ce1c 173d
00000070: 7d8c 9d3c 80bb 56bc 34eb 993c ecc9 f0bb
00000080: 35c3 823c 2a5e f2bb 3603 4d3b 8e4b e6bc
00000090: 751d 8dbc 32fe afbb 5e84 a1bc db5e 4d3c
000000a0: a2bb 003c 2e46 2fbc fce6 3ebc a1ab a3bb
000000b0: 34db ea38 b393 42bd f43b 083c f329 b1bc

Encoder.6.weight f4 [48]
0.9962731 0.98150384 0.9955977 0.98421097 0.9835966 0.9938785 0.97918546 0.98543674
0.98283595 0.98359907 0.98179513 0.9805706 0.9804792 0.9826814 0.9883415 0.9927182
0.9851545 0.98607206 0.9914165 0.9831111 0.99846655 0.99102306 0.98627114 0.98783505
0.9819523 0.9937985 0.9882045 0.9828365 0.98354596 0.997776 0.9879893 0.9824367
0.99388176 0.98124325 0.98335546 0.9858524 0.98276776 0.98093027 0.98218626 0.9828836
0.98968726 0.98355395 0.98821294 0.9876434 1.0043402 0.98885506 0.98679584 0.9823494
00000000: c10b 7f3f d643 7b3f 7edf 7e3f 40f5 7b3f
00000010: fdcc 7b3f d26e 7e3f e6ab 7a3f 9545 7c3f
00000020: 239b 7b3f 26cd 7b3f ed56 7b3f ad06 7b3f
00000030: af00 7b3f 0291 7b3f f303 7d3f c822 7e3f
00000040: 1633 7c3f 386f 7c3f 79cd 7d3f 2bad 7b3f
00000050: 819b 7f3f b0b3 7d3f 447c 7c3f c2e2 7c3f
00000060: 3a61 7b3f 9469 7e3f f8fa 7c3f 2c9b 7b3f
00000070: abc9 7b3f 3f6e 7f3f deec 7c3f f980 7b3f
00000080: 096f 7e3f c232 7b3f 2fbd 7b3f d360 7c3f
00000090: ab96 7b3f 3f1e 7b3f 8f70 7b3f 429e 7b3f
000000a0: 255c 7d3f 31ca 7b3f 86fb 7c3f 33d6 7c3f
000000b0: 388e 803f 9b25 7d3f a79e 7c3f 407b 7b3f

Encoder.6.bias f4 [48]
-0.009298514 0.0096275695 -0.015108113 -0.00871639 0.010955027 0.005614612 -0.0132954875 -0.0023605109
0.009112687 0.010178446 0.010264911 0.005242618 0.010827279 0.011062703 -0.009141113 0.009271795
-0.0068212627 0.00861395 0.010836154 -0.009893216 -0.010286361 -0.011656162 -0.012428673 0.017700689
0.012266941 0.010330292 0.008335857 0.009191037 0.012458306 -0.011074452 -0.006965655 4.1602423e-05
-0.014019887 -0.011831722 0.012879958 -0.010906827 0.009945831 0.010767865 -0.0110000055 -0.0077533666
-0.010191104 0.006965542 -0.009349284 0.0074434658 -0.0089318175 -0.011506989 0.010592699 0.008053042
00000000: cb58 18bc f4bc 1d3c 0588 77bc 30cf 0ebc
00000010: b77c 333c c7fa b73b 51d5 59bc cdb2 1abb
00000020: 614d 153c 7fc3 263c 282e 283c 44ca ab3b
00000030: e664 313c 5740 353c 9bc4 15bc bae8 173c
00000040: e684 dfbb 8621 0d3c 208a 313c 2817 22bc
00000050: 2088 28bc 7df9 3ebc a2a1 4bbc 0901 913c
00000060: 48fb 483c 6340 293c 1e93 083c 0196 163c
00000070: ec1d 4c3c 9e71 35bc 2640 e4bb 437e 2e38
00000080: abb3 65bc d7d9 41bc 7606 533c 8cb2 32bc
00000090: d7f3 223c b36b 303c 5e39 34bc f40f febb
000000a0: 97f8 26bc 343f e43b bd2d 19bc 51e8 f33b
000000b0: c256 12bc cf87 3cbc 008d 2d3c e8f0 033c

Encoder.6.running_mean f4 [48]
0.6585201 0.72298527 0.54421234 0.76654404 0.8392897 0.7531803 0.7576808 0.9677697
0.9941269 0.67621565 0.64751697 0.9775966 0.8429623 0.76195186 0.7194549 1.1884379
0.85333264 0.7309495 0.73704886 1.0274792 0.72088605 0.8235905 0.9496842 0.9039148
0.6279105 0.6519764 0.54338866 0.8602716 0.7712283 0.59248596 1.0811387 0.7355008
0.62978125 0.87837845 0.83603805 0.6653104 0.64950556 0.56845266 0.8966984 0.92039233
0.9441197 0.70171916 0.781136 0.8248009 0.7938615 0.61097926 0.67795 0.6843327
00000000: c694 283f 9015 393f 8051 0b3f 3b3c 443f
00000010: b1db 563f 6dd0 403f 5ef7 413f c1bf 773f
00000020: 1a7f 7e3f 781c 2d3f acc3 253f c543 7a3f
00000030: 61cc 573f 470f 433f 322e 383f bc1e 983f
00000040: 0274 5a3f 821f 3b3f 3caf 3c3f 7084 833f
00000050: fd8b 383f d4d6 523f 811e 733f f666 673f
00000060: bebe 203f ede7 263f 851b 0b3f c23a 5c3f
00000070: 386f 453f 29ad 173f c162 8a3f c849 3c3f
00000080: 5839 213f 69dd 603f 9706 563f c851 2a3f
00000090: ff45 263f 1d86 113f 078e 653f d59e 6b3f
000000a0: d4b1 713f dea3 333f 87f8 473f 2726 533f
000000b0: 823a 4b3f 2369 1c3f 228e 2d3f 6e30 2f3f

Encoder.6.running_var f4 [48]
3.200336 1.6187981 2.1620774 4.347708 4.529272 2.764359 3.3615994 5.0234485
6.197435 2.4653094 1.4905261 3.447624 4.532772 2.391555 3.200017 4.8201303
4.4882016 2.0383184 3.0237763 4.1689334 3.3705711 2.5680945 3.1669571 4.0800433
1.8466057 1.4898108 2.152429 1.6716855 3.5887887 2.5389462 3.924287 3.2443316
2.858625 3.4570408 4.777437 2.7411168 2.2194438 1.4266169 3.0586035 2.9695559
2.9864683 3.6822479 4.3727956 4.4672856 4.0301576 2.7765465 2.6296585 1.7813244
00000000: 4ed2 4c40 c734 cf3f 7a5f 0a40 6d20 8b40
00000010: ccef 9040 42eb 3040 7224 5740 17c0 a040
00000020: 6351 c640 a1c7 1d40 8fc9 be3f dfa5 5c40
00000030: 780c 9140 3d0f 1940 14cd 4c40 823e 9a40
00000040: 599f 8f40 cf73 0240 8d85 4140 e767 8540
00000050: 70b7 5740 a95b 2440 6daf 4a40 b78f 8240
00000060: 935d ec3f 1fb2 be3f 66c1 0940 caf9 d53f
00000070: b7ae 6540 187e 2240 8527 7b40 21a3 4f40
00000080: b6f3 3640 2840 5d40 c4e0 9840 756e 2f40
00000090: 5e0b 0e40 629b b63f 29c0 4340 340d 3e40
000000a0: 4c22 3f40 f3a9 6b40 f1ed 8b40 01f4 8e40
000000b0: 0df7 8040 f0b2 3140 534c 2840 7002 e43f

Encoder.8.weight f4 [4, 48, 3, 3]
-0.03335332 -0.059024494 0.06048088 0.023157226 0.0364175 0.054843444 -0.037989594 0.122939885
0.02188764 0.020657737 0.031801224 -0.05864499 0.038489632 -0.044039648 -0.0915983 -0.11657608
0.0531806 0.014343733 -0.0044545177 0.10452948 -0.052670233 0.06423028 -0.05945709 -0.039863795
-0.036298428 0.04658313 0.045910243 0.12772244 0.0007237859 -0.13905157 -0.005488343 -0.041592643
0.057769265 0.019499034 0.13406606 -0.044043023 -0.07220311 0.016833857 -0.08775728 -0.03956161
-0.06603938 0.07850643 0.0068464144 0.003026508 -0.0026438218 0.006061623 0.057002563 0.021233484
0.07724403 0.06645494 -0.048549227 0.052381456 0.075461775 -0.10906629 -0.018243682 -0.012115478
0.09271527 -0.042688396 -0.006531518 -0.04055651 0.0061778245 0.085909896 0.03604279 0.024845304
0.023150977 0.008473133 0.04804349 0.10731169 0.11003161 -0.017299296 -0.076079935 -0.020615954
0.023947587 0.029947199 0.11191043 -0.010977895 0.022810688 0.034645036 -0.03281187 -0.043298893
-0.07193253 -0.06370717 -0.11406314 -0.050862502 -0.00555279 0.051114 0.045682754 -0.008085023
-0.0097004585 0.04562159 0.046069793 -0.121199764 -0.06391297 -0.0089637535 0.03633099 -0.06139098
0.00983303 -0.0888423 -0.07285304 -0.022607693 0.037678163 0.052310176 0.07244567 0.12590854
0.053974852 -0.00075214286 -0.08832412 -0.08299448 -0.020215034 0.037605867 0.009440008 -0.036016315
0.013668169 -0.091834664 0.075720735 0.03361297 -0.023311574 -0.06209269 0.10369056 -0.0320534
-0.08574725 -0.000513035 -0.08846677 -0.07332923 -0.07412873 0.1332397 0.05811298 0.077078596
0.053264804 0.14299856 0.024905005 0.005754109 0.08148189 0.018189684 0.008754699 -0.07744026
0.15341516 0.026735092 -0.07703428 -0.04515325 -0.084289484 -0.039273396 -0.11116916 -0.017896384
-0.0054220255 0.02618347 -0.080740586 0.025731908 0.01199343 0.07094944 0.05889546 0.07372691
-0.093597345 -0.05534822 0.061679997 0.020097269 -0.060395233 -0.093608655 -0.0053844643 -0.0037457813
0.015042718 0.01615266 0.07668456 0.09014377 0.0051447307 -0.11330321 -0.050223667 -0.01700101
0.06456856 -0.015550393 0.055459406 -0.031274293 -0.021079719 0.06161331 0.014852614 -0.06950229
0.024418978 -0.03659594 0.122887515 -0.10148985 0.0017992532 0.052694153 0.05298895 0.055328067
-0.15289065 0.16014266 0.025290815 -0.04799186 0.06819619 0.041757114 0.0845578 -0.029729316
0.04221777 0.026521046 0.018455375 0.053942543 -0.076558396 0.049215782 0.10213834 -0.024109015
0.036297645 0.058129635 0.047793347 0.045682408 0.0037261988 -0.054299954 -0.066371754 0.041658953
0.05074481 -0.015623234 0.06746181 0.01951342 -0.006761165 -0.07791202 0.02057571 -0.08693005
-0.056553923 -0.031679876 0.029479748 0.02122375 -0.09556504 -0.007097386 0.036236238 -0.048495073
-0.005783042 -0.13269646 0.04985689 -0.06284011 -0.11657577 -0.024696229 0.00079359557 0.020167865
-0.019559653 -0.011156492 0.011755758 -0.07432978 -0.019106103 0.013744589 -0.003625015 0.023805419
-0.005065781 -0.030031515 -0.024588203 -0.045615267 -0.021820474 -0.027672334 0.0108341295 0.022037778
-0.024035834 -0.10065258 0.06317398 -0.059662767 -0.110664696 0.037177425 0.05945964 0.007896471
00000000: 7e9d 08bd abc3 71bd cdba 773d 39b4 bd3c
00000010: 842a 153d 85a3 603d fa9a 1bbd e8c7 fb3d
00000020: b54d b33c 6a3a a93c 0042 023d bb35 70bd
00000030: 4ea7 1d3d eb62 34bd e497 bbbd 71bf eebd
00000040: e7d3 593d fa01 6b3c 34f7 91bb 8d13 d63d
00000050: bebc 57bd 2a8b 833d 4789 73bd 3848 23bd
00000060: a9ad 14bd f4cd 3e3d 610c 3c3d acc9 023e
00000070: 73bc 3d3a 8963 0ebe 8fd7 b3bb 0c5d 2abd
00000080: 779f 6c3d 70bc 9f3c 9d48 093e 7566 34bd
00000090: 39df 93bd 28e7 893c 17ba b3bd 5b0b 22bd
000000a0: a83f 87bd fbc7 a03d e357 e03b 6158 463b
000000b0: f843 2dbb 94a0 c63b 857b 693d d8f1 ad3c
000000c0: 1e32 9e3d 8719 883d 8edb 46bd f08d 563d
000000d0: b48b 9a3d 265e dfbd c673 95bc ff7f 46bc
000000e0: 81e1 bd3d 07da 2ebd 5806 d6bb 951e 26bd
000000f0: 596f ca3b 87f1 af3d 9ba1 133d 6188 cb3c
00000100: 1ea7 bd3c e5d2 0a3c 40c9 443d 3bc6 db3d
00000110: 4158 e13d 41b7 8dbc cccf 9bbd cae2 a8bc
00000120: bb2d c43c d453 f53c 4c31 e53d a1dc 33bc
00000130: 7bdd ba3c f4e7 0d3d bd65 06bd 2e5a 31bd
00000140: 5d51 93bd e878 82bd ef99 e9bd 3355 50bd
00000150: 2ef4 b5bb ea5c 513d d71d 3b3d 0b77 04bc
00000160: acee 1ebc b4dd 3a3d aeb3 3c3d 9537 f8bd
00000170: cee4 82bd b5dc 12bc cecf 143d 1c75 7bbd
00000180: b81a 213c f4f2 b5bd fa33 95bd c533 b9bc
00000190: 6b54 1a3d 3243 563d 655e 943d 2bee 003e
000001a0: bc14 5d3d 742b 45ba 47e3 b4bd 03f9 a9bd
000001b0: 009a a5bc 9c08 1a3d 43aa 1a3c d885 13bd
000001c0: 75f0 5f3c d013 bcbd 7913 9b3d c1ad 093d
000001d0: eaf7 bebc e854 7ebd b75b d43d 6d4a 03bd
000001e0: 419c afbd 327d 06ba 112e b5bd a32d 96bd
000001f0: ced0 97bd fd6f 083e e007 6e3d 62db 9d3d
00000200: 322c 5a3d 376e 123e 9505 cc3c f78c bc3b
00000210: fadf a63d 8802 953c de6f 0f3c 0099 9ebd
00000220: dd18 1d3e 8d03 db3c 26c4 9dbd 9df2 38bd
00000230: f79f acbd 24dd 20bd a8ac e3bd 709b 92bc
00000240: 3fab b1bb b77e d63c 525b a5bd b9cb d23c
00000250: 1780 443c f14d 913d 5e3c 713d 22fe 963d
00000260: f7af bfbd d1b4 62bd 2aa4 7c3d 07a3 a43c
00000270: fe60 77bd e5b5 bfbd 2970 b0bb c87b 75bb
00000280: bb75 763c 9552 843c cb0c 9d3d 4c9d b83d
00000290: 2195 a83b 830b e8bd 55b7 4dbd b445 8bbc
000002a0: 853c 843d 13c7 7ebc 6729 633d 7919 00bd
000002b0: 60af acbc 3d5e 7c3d 6158 733c 3757 8ebd
000002c0: 4f0a c83c a0e5 15bd 73ac fb3d e9d9 cfbd
000002d0: ebd4 eb3a d3d5 573d f10a 593d af9f 623d
000002e0: 5e8f 1cbe 70fc 233e af2e cf3c 1d93 44bd
000002f0: 72aa 8b3d 8209 2b3d a42c ad3d e58a f3bc
00000300: 8aec 2c3d aa42 d93c ba2f 973c dbf2 5c3d
00000310: a6ca 9cbd 7d96 493d e82d d13d 4580 c5bc
00000320: d7ac 143d 5719 6e3d f5c2 433d 7a1d 3b3d
00000330: 3e33 743b a169 5ebd eaed 87bd 94a2 2a3d
00000340: cad9 4f3d 98f8 7fbc 6b29 8a3d 9cda 9f3c
00000350: c38c ddbb 5690 9fbd 648e a83c 6208 b2bd
00000360: 16a5 67bd c2c2 01bd 837f f13c 6edd ad3c
00000370: 9bb7 c3bd 3091 e8bb 736c 143d c5a2 46bd
00000380: ac7f bdbb 95e1 07be bd36 4c3d 51b2 80bd
00000390: 47bf eebd bf4f cabc 4c09 503a 1437 a53c
000003a0: 913b a0bc b8c9 36bc 399b 403c 363a 98bd
000003b0: 6784 9cbc fc30 613c a991 6dbb 9503 c33c
000003c0: dafe a5bb a704 f6bc 336d c9bc 13d7 3abd
000003d0: dac0 b2bc 17b1 e2bc a281 313c 9288 b43c
000003e0: cce6 c4bc f122 cebd 5c61 813d f260 74bd
000003f0: 2ca4 e2bd 5b47 183d f48b 733d 3360 013c

Encoder.8.bias f4 [4]
0.019582063 -0.047852118 0.040618293 0.036642965
00000000: 906a a03c 9500 44bd 5e5f 263d ef16 163d

Cluster.0.weight f4 [64, 6, 1, 1]
0.084081285 -0.7259595 0.16246931 0.51433635 -0.11435217 -0.6120654 -0.13715707 0.20166828
-0.35402918 0.8035012 -0.7691447 -0.011330267 -0.19242129 -1.1827539 1.1620895 0.10392643
0.105883494 0.1040742 0.3073973 0.72976667 -0.01412442 1.3381411 0.2357538 0.57504904
0.23814678 0.5658862 -0.70582354 0.2717647 0.3260232 -0.9736406 -0.2965881 -0.7475905
0.10243023 -0.9121327 -0.44265717 0.56672573 0.9338438 0.6166485 0.26945522 0.3341961
0.34671977 -0.11780755 -0.0194948 0.13164857 0.14198974 -0.44636756 0.03973383 0.0067598023
-0.37625661 -0.25734726 0.31120548 0.92958665 -0.06566067 0.36394668 0.07406939 0.48220104
0.09677914 -0.030700235 0.44188476 -0.14481115 0.38830394 -0.72492445 -0.9844388 0.6029896
-0.22663468 -0.54792994 -0.47743383 0.3232175 0.6036046 -0.13437459 1.1851621 -0.74341285
0.84808457 -0.7251727 -1.4302262 -0.4143583 -0.26170558 0.36396375 0.65957487 -0.6257817
-0.25731298 -0.46886128 0.20790826 -0.4879917 -0.32292348 0.06367353 0.17491467 0.32421404
-0.047324423 0.042287767 -0.26516137 0.037995126 0.1412134 0.77933925 -0.8117488 0.18885292
-0.9329322 0.5287731 0.22452705 0.6940071 0.9188788 -0.71241903 -0.3068846 -0.607493
0.19902295 -0.19116376 0.40218815 -0.5998896 0.3311403 1.0625719 0.77162975 0.45644194
0.56355625 -0.27772763 -0.5356338 -0.13640697 1.0556805 0.7107985 -0.6573632 -0.1501255
0.37340453 -0.65848726 -0.58948636 -0.22081651 -0.17081214 0.15745616 -0.22924837 -0.16170171
0.54071814 0.63576543 -0.14744443 -0.70627826 0.48094183 -0.17623685 0.18036948 -0.05295549
-0.59443414 0.4184516 0.35775048 -0.57459986 -0.26881403 0.15851066 -0.34524405 0.46657974
-0.32612875 0.103806905 0.5285229 0.699096 0.67035526 0.6416944 0.39588773 -0.5631115
1.0553364 -0.42068648 0.49929455 0.9999963 0.38604915 -0.079385355 -0.58383226 0.7128302
-0.32027027 -0.101158544 -0.27943304 -0.7550677 -0.43736592 -0.19171919 0.6896712 -0.67640275
0.78517735 -0.4368041 0.3243801 -1.1039245 0.07011557 -0.48409796 -0.520514 0.42911404
-0.13233522 0.16779284 -0.48179522 0.07943743 0.38462186 -0.51439095 0.24101554 0.56951076
0.4161764 -0.13584976 0.46533418 0.16713227 -0.6362208 0.24637243 0.023034498 -0.37433666
1.2396593 -0.44831532 -0.06291131 0.18068548 0.11754532 -0.036806993 0.497324 0.30457512
-0.31381968 0.63902235 -0.523406 0.1656398 0.3483881 -0.8657691 0.24522097 0.32441
-1.1990145 -1.470678 0.16239291 0.62355435 -0.6397474 -0.991007 -0.7946074 -0.19718805
0.1089473 0.13030735 -0.2722737 0.33287454 -0.18819737 0.10512303 1.1911535 0.48608944
-0.47100413 0.7388507 -0.48284787 1.0377641 -0.7002156 0.51835907 -0.028326882 -0.84560287
-1.1717175 0.2505745 0.76200765 0.12434236 0.4587635 1.0452807 -0.21504146 0.2537647
0.11396874 -0.052963376 -0.19389446 -0.0013363585 -0.52237135 -1.41402 -0.1954109 -0.18040787
-0.06021783 0.17437208 0.1346076 -0.01765955 0.45910746 -0.45807084 0.15092464 -0.04884474
00000000: cf32 ac3d 7bd8 39bf 5b5e 263e 8cab 033f
00000010: 7831 eabd 51b0 1cbf e772 0cbe 2182 4e3e
00000020: 5043 b5be 41b2 4d3f abe6 44bf 96a2 39bc
00000030: 160a 45be 7b64 97bf 59bf 943f 61d7 d43d
00000040: 72d9 d83d db24 d53d 2e63 9d3e fdd1 3a3f
00000050: 1c6a 67bc 3548 ab3f 7269 713e 6a36 133f
00000060: c0dc 733e ebdd 103f dab0 34bf be24 8b3e
00000070: 83ec a63e 8340 79bf 65da 97be 1762 3fbf
00000080: f1c6 d13d 8781 69bf f6a3 e2be f014 113f
00000090: 6310 6f3f addc 1d3f 09f6 893e c01b ab3e
000000a0: 4185 b13e 1645 f1bd 8fb3 9fbc e2ce 063e
000000b0: c265 113e 4a8a e4be f1bf 223d 5581 dd3b
000000c0: b5a4 c0be 05c3 83be 5356 9f3e 64f9 6d3f
000000d0: 1a79 86bd 3857 ba3e b1b1 973d 0ee3 f63e
000000e0: 2434 c63d 0f7f fbbc b83e e23e 6049 14be
000000f0: c6cf c63e a694 39bf 2e04 7cbf 875d 1a3f
00000100: ec12 68be 2345 0cbf 3572 f4be c47c a53e
00000110: d585 1a3f 7e99 09be 64b3 973f 4e50 3ebf
00000120: 121c 593f eba4 39bf a711 b7bf c526 d4be
00000130: 46fe 85be 7559 ba3e e6d9 283f 3b33 20bf
00000140: 87be 83be 960e f0be e7e5 543e 0cda f9be
00000150: 3a56 a5be 4567 823d d51c 333e 62ff a53e
00000160: 41d7 41bd f035 2d3d 3bc3 87be c7a0 1b3d
00000170: 3f9a 103e c782 473f c5ce 4fbf a962 413e
00000180: a5d4 6ebf ad5d 073f 6bea 653e 73aa 313f
00000190: a43b 6b3f 1861 36bf fa1f 9dbe a984 1bbf
000001a0: accc 4b3e 6fc0 43be 9beb cd3e 5d92 19bf
000001b0: 398b a93e 5b02 883f 8789 453f c2b2 e93e
000001c0: 3945 103f 5132 8ebe 4c1f 09bf 45ae 0bbe
000001d0: 8a20 873f e4f6 353f f448 28bf 80ba 19be
000001e0: e12e bf3e 9f92 28bf 94e8 16bf b91d 62be
000001f0: 61e9 2ebe 303c 213e 16c0 6abe 2295 25be
00000200: 816c 0a3f 86c1 223f acfb 16be a7ce 34bf
00000210: 023e f63e 6f77 34be c7b2 383e dbe7 58bd
00000220: d62c 18bf 4a3f d63e 122b b73e fa18 13bf
00000230: fea1 89be 9e50 223e d4c3 b0be 8ae3 ee3e
00000240: 59fa a6be b798 d43d 474d 073f f5f7 323f
00000250: 679c 2b3f 1646 243f ccb1 ca3e 1328 10bf
00000260: 4315 873f 3864 d7be 89a3 ff3e c2ff 7f3f
00000270: 3ca8 c53e ca94 a2bd 0876 15bf 0a7c 363f
00000280: 77fa a3be 362c cfbd d911 8fbe 1e4c 41bf
00000290: 6dee dfbe 0952 44be 4b8e 303f bb28 2dbf
000002a0: 6201 493f c9a4 dfbe 2615 a63e 664d 8dbf
000002b0: c198 8f3d b0db f7be 6840 05bf d6b4 db3e
000002c0: e282 07be e3d1 2b3e ddad f6be 17b0 a23d
000002d0: 28ed c43e 20af 03bf c7cc 763e 75cb 113f
000002e0: 1315 d53e 331c 0bbe 4840 ee3e b924 2b3e
000002f0: 5edf 22bf 0e49 7c3e d8b2 bc3c 0ea9 bfbe
00000300: 28ad 9e3f 9689 e5be a5d7 80bd 9d05 393e
00000310: 9abb f03d eec2 16bd 40a1 fe3e 45f1 9b3e
00000320: f9ac a0be f896 233f f0fd 05bf 7b9d 293e
00000330: ed5f b23e 0ba3 5dbf 351b 7b3e 1119 a63e
00000340: 4f79 99bf 2d3f bcbf 544a 263e 42a1 1f3f
00000350: 7cc6 23bf a2b2 7dbf 646b 4bbf aaeb 49be
00000360: c31f df3d 4a6f 053e 7567 8bbe 886e aa3e
00000370: d0b6 40be be4a d73d b877 983f b7e0 f83e
00000380: 7427 f1be 5225 3d3f d637 f7be 74d5 843f
00000390: 5441 33bf 2eb3 043f c70d e8bc 6e79 58bf
000003a0: d7fa 95bf 4d4b 803e ef12 433f 35a7 fe3d
000003b0: 0de3 ea3e c2cb 853f d433 5cbe 72ed 813e
000003c0: 7168 e93d 20f0 58bd 458c 46be c028 afba
000003d0: 21ba 05bf 9bfe b4bf cc19 48be d7bc 38be
000003e0: f9a6 76bd 988e 323e 93d6 093e c3aa 90bc
000003f0: 2210 eb3e 4388 eabe fd8b 1a3e 6c11 48bd

Cluster.0.bias f4 [64]
0.12324733 0.08873063 -0.018009543 -0.34329218 -0.27230257 0.24258363 -0.17629041 -0.08942389
0.11068376 -0.00803757 0.31464353 -0.38228688 -0.04404633 0.3363222 -0.06242005 0.043825954
-0.2023145 0.21708271 -0.10255639 0.3319958 -0.3684173 -0.3769953 0.1358524 0.021839805
-0.24638462 -0.06387045 0.13128297 -0.18151051 0.21865043 0.30614755 -0.26611838 -0.09633817
-0.24872372 0.05520258 -0.09203156 -0.098416075 -0.03191306 0.28127342 0.23488514 0.012324179
0.30138564 -0.009432224 0.2654887 -0.055791695 0.059795387 0.13537796 0.34885836 -0.07961961
-0.20643117 -0.18671137 0.12554397 -0.3274682 0.17617197 -0.30284533 -0.3472668 0.29602596
0.20963056 -0.30952752 0.09621661 0.007054059 -0.32228673 0.13986269 0.09142185 -0.048841983
00000000: 1969 fc3d 68b8 b53d c088 93bc fec3 afbe
00000010: 3e6b 8bbe d867 783e 7985 34be df23 b7bd
00000020: 2bae e23d 03b0 03bc f518 a13e 1bbb c3be
00000030: ed69 34bd 6c32 ac3e 2bac 7fbd d882 333d
00000040: 882b 4fbe ee4a 5e3e 1609 d2bd 5afb a93e
00000050: 31a1 bcbe 8705 c1be e41c 0b3e 64e9 b23c
00000060: 404c 7cbe 83ce 82bd 0b6f 063e e4dd 39be
00000070: e6e5 5f3e 5fbf 9c3e ab40 88be f24c c5bd
00000080: 6eb1 7ebe 1a1c 623d 0b7b bcbd 5e8e c9bd
00000090: 45b7 02bd 1203 903e bb85 703e 5aeb 493c
000000a0: 384f 9a3e 9d89 1abc 23ee 873e d585 64bd
000000b0: 02ec 743d 85a0 0a3e 909d b23e 9b0f a3bd
000000c0: b162 53be 4431 3fbe 998e 003e e9a9 a7be
000000d0: 6d66 343e 8b0e 9bbe f4cc b1be b790 973e
000000e0: 65a9 563e 647a 9ebe 370d c53d bc25 e73b
000000f0: c402 a5be 2a38 0f3e 613b bb3d 880e 48bd

Cluster.2.weight f4 [64]
0.9841048 0.9756448 0.9799384 0.97633034 0.98254824 0.98307747 0.9811492 0.9823864
0.9842149 0.98148954 0.9874274 0.9867246 0.98133636 0.9869999 0.9844903 0.9819949
0.9821223 0.9777943 0.9904601 0.9807958 0.9789036 0.9811213 0.9912812 0.9776688
0.97918826 0.97878826 0.98071414 0.9790013 0.9936497 0.98848385 1.0114474 0.9804999
0.9773534 0.98777354 0.98405975 0.9814701 0.994057 0.99562466 1.0058364 0.9788543
0.9772518 0.98578554 0.98306125 0.9762374 0.981657 0.98111254 0.98728484 0.9831587
0.98331726 0.9784774 0.9989732 0.98108536 0.9862404 0.9873883 0.97398746 0.9794828
0.98375005 0.98297143 0.97556365 0.9837165 1.0024313 1.0073603 0.98305154 0.99561036
00000000: 4bee 7b3f dcc3 793f 3edd 7a3f c9f0 793f
00000010: 4888 7b3f f7aa 7b3f 982c 7b3f ad7d 7b3f
00000020: 82f5 7b3f e642 7b3f 0bc8 7c3f fc99 7c3f
00000030: dc38 7b3f 07ac 7c3f 8e07 7c3f 0564 7b3f
00000040: 5e6c 7b3f ba50 7a3f cb8e 7d3f 6f15 7b3f
00000050: 6d99 7a3f c42a 7b3f 9bc4 7d3f 8148 7a3f
00000060: 15ac 7a3f de91 7a3f 1510 7b3f d49f 7a3f
00000070: d45f 7e3f 470d 7d3f 1c77 813f 0b02 7b3f
00000080: d533 7a3f bade 7c3f 57eb 7b3f a041 7b3f
00000090: 857a 7e3f 42e1 7e3f 3fbf 803f 3296 7a3f
000000a0: 2d2d 7a3f 715c 7c3f e7a9 7b3f b2ea 793f
000000b0: e04d 7b3f 312a 7b3f b3be 7c3f 4ab0 7b3f
000000c0: aeba 7b3f 7f7d 7a3f b5bc 7f3f 6928 7b3f
000000d0: 407a 7c3f 7bc5 7c3f 3e57 793f 63bf 7a3f
000000e0: 0bd7 7b3f 04a4 7b3f 8abe 793f d8d4 7b3f
000000f0: ab4f 803f 2ff1 803f 44a9 7b3f 52e0 7e3f

Cluster.2.bias f4 [64]
-0.011461835 -0.011328899 0.013963 0.01824214 -0.021925667 0.006101421 0.01530119 -0.013436244
0.0014704596 0.0045567066 0.01192164 0.006156932 0.004901247 0.00959498 0.013390066 0.008849565
-0.0003458506 0.0004834955 -0.0045652734 0.00977001 -0.014162302 0.0077019027 0.006305815 -0.018023897
0.014793439 -0.0019695482 0.021001011 0.001074247 -0.017425554 -0.0002840141 0.004621811 -0.00746895
0.016989822 -0.008764575 0.0060705664 0.02191271 0.019833226 0.008277853 0.016359016 -0.018529834
-0.011374231 0.010641231 -0.009781279 -0.013994823 -0.023542913 0.012926449 0.006375192 0.020048846
0.00410363 0.018043265 0.01290826 -0.0007475054 0.011783733 0.0023052024 0.011866705 0.013402532
-0.006547293 0.012730005 -0.0042759706 0.009926048 -0.018780801 0.0111781815 -0.015599982 -0.0028453746
00000000: 6cca 3bbc d99c 39bc 11c5 643c 8a70 953c
00000010: 759d b3bc 6eee c73b d8b1 7a3c b123 5cbc
00000020: 70bc c03a 6d50 953b fb52 433c 17c0 c93b
00000030: a49a a03b 4334 1d3c 0262 5b3c c4fd 103c
00000040: 4853 b5b9 ab7d fd39 4a98 95bb 6412 203c
00000050: 0009 68bc 3e60 fc3b 03a1 ce3b daa6 93bc
00000060: 2e60 723c 8913 01bb 500a ac3c bfcd 8c3a
00000070: 09c0 8ebc bae7 94b9 9072 973b 18be f4bb
00000080: 3d2e 8b3c 4b99 0fbc 9aeb c63b 4982 b33c
00000090: 4a79 a23c d59f 073c 5803 863c e1cb 97bc
000000a0: fc5a 3abc 8f58 2e3c a841 20bc 8b4a 65bc
000000b0: 11dd c0bc 75c9 533c fde6 d03b 7a3d a43c
000000c0: be77 863b 78cf 933c 2b7d 533c 3df4 43ba
000000d0: 8f10 413c e112 173b 916c 423c 4b96 5b3c
000000e0: ad8a d6bb 8391 503c 711d 8cbb dda0 223c
000000f0: 32da 99bc b124 373c 1197 7fbc 7779 3abb

Cluster.2.running_mean f4 [64]
0.19881211 0.091225185 0.21141066 0.16657363 -0.21622616 -0.13874564 0.24590471 -0.14090298
0.3311221 0.08316352 0.040776268 -0.09330085 -0.39957556 0.107930996 0.054636613 0.1325617
0.050275937 0.07317079 0.3152255 0.4672563 -0.5155846 0.0069449604 0.1318021 -0.04426576
0.16908176 0.14879563 0.12666987 -0.3086294 0.07959247 0.19386277 0.0020021142 -0.16077876
-0.08377517 0.16309942 -0.14123033 -0.3781801 0.0016037013 0.17114297 -0.10589974 0.46466234
0.11180499 -0.0385856 0.28171968 0.290225 0.25888097 0.007900684 -0.118668765 -0.01772023
-0.17470698 -0.01144028 0.1990235 -0.031548135 -0.17556338 -0.09157934 -0.24929585 0.08735815
0.07298001 -0.20050801 0.39132786 -0.17562838 -0.4389826 0.23787722 0.37464094 0.3646247
00000000: 6795 4b3e 45d4 ba3d 097c 583e 4792 2a3e
00000010: 646a 5dbe 5613 0ebe 72ce 7b3e df48 10be
00000020: d688 a93e a351 aa3d 0405 273d 8414 bfbd
00000030: 2b95 ccbe ed0a dd3d a4ca 5f3d 41be 073e
00000040: 24ee 4d3d 91da 953d 3d65 a13e 383c ef3e
00000050: 5afd 03bf 8d92 e33b 21f7 063e 0350 35bd
00000060: c523 2d3e e25d 183e bfb5 013e ac04 9ebe
00000070: 6001 a33d f683 463e e735 033b 30a3 24be
00000080: 5192 abbd 8903 273e af9e 10be d2a0 c1be
00000090: 4933 d23a 1a40 2f3e f6e1 d8bd 39e8 ed3e
000000a0: 04fa e43d ef0b 1ebd 903d 903e 5f98 943e
000000b0: 0c8c 843e df71 013c 9c08 f3bd 042a 91bc
000000c0: 63e6 32be 0370 3bbc d1cc 4b3e 9e38 01bd
000000d0: e3c6 33be f38d bbbd 6947 7fbe d4e8 b23d
000000e0: 8b76 953d f951 4dbe 205c c83e edd7 33be
000000f0: 54c2 e0be 1696 733e f0d0 bf3e 17b0 ba3e
